…
I0528 16:36:53.079308  1565 logouter.cpp:157] GPU device name: GeForce GTX 1050 Ti
I0528 16:36:53.320291  1565 net.cpp:58] Initializing net from parameters: 
name: "VGG_VOC0712_SSD_300x300_test"
state {
  phase: TEST
  level: 0
  stage: ""
}
layer {
  name: "data"
  type: "VideoData"
  top: "data"
  transform_param {
    mean_value: 104
    mean_value: 117
    mean_value: 123
    resize_param {
      prob: 1
      resize_mode: WARP
      height: 300
      width: 300
      interp_mode: LINEAR
    }
  }
  data_param {
    batch_size: 1
  }
  video_data_param {
    video_type: WEBCAM
    device_id: 0
    skip_frames: 0
  }
}
layer {
  name: "conv1_1"
  type: "Convolution"
  bottom: "data"
  top: "conv1_1"
  param {
    lr_mult: 1
    decay_mult: 1
  }
  param {
    lr_mult: 2
    decay_mult: 0
  }
  convolution_param {
    num_output: 64
    pad: 1
    kernel_size: 3
    weight_filler {
      type: "xavier"
    }
    bias_filler {
      type: "constant"
      value: 0
    }
  }
}
layer {
  name: "relu1_1"
  type: "ReLU"
  bottom: "conv1_1"
  top: "conv1_1"
}
layer {
  name: "conv1_2"
  type: "Convolution"
  bottom: "conv1_1"
  top: "conv1_2"
  param {
    lr_mult: 1
    decay_mult: 1
  }
  param {
    lr_mult: 2
    decay_mult: 0
  }
  convolution_param {
    num_output: 64
    pad: 1
    kernel_size: 3
    weight_filler {
      type: "xavier"
    }
    bias_filler {
      type: "constant"
      value: 0
    }
  }
}
layer {
  name: "relu1_2"
  type: "ReLU"
  bottom: "conv1_2"
  top: "conv1_2"
}
layer {
  name: "pool1"
  type: "Pooling"
  bottom: "conv1_2"
  top: "pool1"
  pooling_param {
    pool: MAX
    kernel_size: 2
    stride: 2
  }
}
layer {
  name: "conv2_1"
  type: "Convolution"
  bottom: "pool1"
  top: "conv2_1"
  param {
    lr_mult: 1
    decay_mult: 1
  }
  param {
    lr_mult: 2
    decay_mult: 0
  }
  convolution_param {
    num_output: 128
    pad: 1
    kernel_size: 3
    weight_filler {
      type: "xavier"
    }
    bias_filler {
      type: "constant"
      value: 0
    }
  }
}
layer {
  name: "relu2_1"
  type: "ReLU"
  bottom: "conv2_1"
  top: "conv2_1"
}
layer {
  name: "conv2_2"
  type: "Convolution"
  bottom: "conv2_1"
  top: "conv2_2"
  param {
    lr_mult: 1
    decay_mult: 1
  }
  param {
    lr_mult: 2
    decay_mult: 0
  }
  convolution_param {
    num_output: 128
    pad: 1
    kernel_size: 3
    weight_filler {
      type: "xavier"
    }
    bias_filler {
      type: "constant"
      value: 0
    }
  }
}
layer {
  name: "relu2_2"
  type: "ReLU"
  bottom: "conv2_2"
  top: "conv2_2"
}
layer {
  name: "pool2"
  type: "Pooling"
  bottom: "conv2_2"
  top: "pool2"
  pooling_param {
    pool: MAX
    kernel_size: 2
    stride: 2
  }
}
layer {
  name: "conv3_1"
  type: "Convolution"
  bottom: "pool2"
  top: "conv3_1"
  param {
    lr_mult: 1
    decay_mult: 1
  }
  param {
    lr_mult: 2
    decay_mult: 0
  }
  convolution_param {
    num_output: 256
    pad: 1
    kernel_size: 3
    weight_filler {
      type: "xavier"
    }
    bias_filler {
      type: "constant"
      value: 0
    }
  }
}
layer {
  name: "relu3_1"
  type: "ReLU"
  bottom: "conv3_1"
  top: "conv3_1"
}
layer {
  name: "conv3_2"
  type: "Convolution"
  bottom: "conv3_1"
  top: "conv3_2"
  param {
    lr_mult: 1
    decay_mult: 1
  }
  param {
    lr_mult: 2
    decay_mult: 0
  }
  convolution_param {
    num_output: 256
    pad: 1
    kernel_size: 3
    weight_filler {
      type: "xavier"
    }
    bias_filler {
      type: "constant"
      value: 0
    }
  }
}
layer {
  name: "relu3_2"
  type: "ReLU"
  bottom: "conv3_2"
  top: "conv3_2"
}
layer {
  name: "conv3_3"
  type: "Convolution"
  bottom: "conv3_2"
  top: "conv3_3"
  param {
    lr_mult: 1
    decay_mult: 1
  }
  param {
    lr_mult: 2
    decay_mult: 0
  }
  convolution_param {
    num_output: 256
    pad: 1
    kernel_size: 3
    weight_filler {
      type: "xavier"
    }
    bias_filler {
      type: "constant"
      value: 0
    }
  }
}
layer {
  name: "relu3_3"
  type: "ReLU"
  bottom: "conv3_3"
  top: "conv3_3"
}
layer {
  name: "pool3"
  type: "Pooling"
  bottom: "conv3_3"
  top: "pool3"
  pooling_param {
    pool: MAX
    kernel_size: 2
    stride: 2
  }
}
layer {
  name: "conv4_1"
  type: "Convolution"
  bottom: "pool3"
  top: "conv4_1"
  param {
    lr_mult: 1
    decay_mult: 1
  }
  param {
    lr_mult: 2
    decay_mult: 0
  }
  convolution_param {
    num_output: 512
    pad: 1
    kernel_size: 3
    weight_filler {
      type: "xavier"
    }
    bias_filler {
      type: "constant"
      value: 0
    }
  }
}
layer {
  name: "relu4_1"
  type: "ReLU"
  bottom: "conv4_1"
  top: "conv4_1"
}
layer {
  name: "conv4_2"
  type: "Convolution"
  bottom: "conv4_1"
  top: "conv4_2"
  param {
    lr_mult: 1
    decay_mult: 1
  }
  param {
    lr_mult: 2
    decay_mult: 0
  }
  convolution_param {
    num_output: 512
    pad: 1
    kernel_size: 3
    weight_filler {
      type: "xavier"
    }
    bias_filler {
      type: "constant"
      value: 0
    }
  }
}
layer {
  name: "relu4_2"
  type: "ReLU"
  bottom: "conv4_2"
  top: "conv4_2"
}
layer {
  name: "conv4_3"
  type: "Convolution"
  bottom: "conv4_2"
  top: "conv4_3"
  param {
    lr_mult: 1
    decay_mult: 1
  }
  param {
    lr_mult: 2
    decay_mult: 0
  }
  convolution_param {
    num_output: 512
    pad: 1
    kernel_size: 3
    weight_filler {
      type: "xavier"
    }
    bias_filler {
      type: "constant"
      value: 0
    }
  }
}
layer {
  name: "relu4_3"
  type: "ReLU"
  bottom: "conv4_3"
  top: "conv4_3"
}
layer {
  name: "pool4"
  type: "Pooling"
  bottom: "conv4_3"
  top: "pool4"
  pooling_param {
    pool: MAX
    kernel_size: 2
    stride: 2
  }
}
layer {
  name: "conv5_1"
  type: "Convolution"
  bottom: "pool4"
  top: "conv5_1"
  param {
    lr_mult: 1
    decay_mult: 1
  }
  param {
    lr_mult: 2
    decay_mult: 0
  }
  convolution_param {
    num_output: 512
    pad: 1
    kernel_size: 3
    weight_filler {
      type: "xavier"
    }
    bias_filler {
      type: "constant"
      value: 0
    }
    dilation: 1
  }
}
layer {
  name: "relu5_1"
  type: "ReLU"
  bottom: "conv5_1"
  top: "conv5_1"
}
layer {
  name: "conv5_2"
  type: "Convolution"
  bottom: "conv5_1"
  top: "conv5_2"
  param {
    lr_mult: 1
    decay_mult: 1
  }
  param {
    lr_mult: 2
    decay_mult: 0
  }
  convolution_param {
    num_output: 512
    pad: 1
    kernel_size: 3
    weight_filler {
      type: "xavier"
    }
    bias_filler {
      type: "constant"
      value: 0
    }
    dilation: 1
  }
}
layer {
  name: "relu5_2"
  type: "ReLU"
  bottom: "conv5_2"
  top: "conv5_2"
}
layer {
  name: "conv5_3"
  type: "Convolution"
  bottom: "conv5_2"
  top: "conv5_3"
  param {
    lr_mult: 1
    decay_mult: 1
  }
  param {
    lr_mult: 2
    decay_mult: 0
  }
  convolution_param {
    num_output: 512
    pad: 1
    kernel_size: 3
    weight_filler {
      type: "xavier"
    }
    bias_filler {
      type: "constant"
      value: 0
    }
    dilation: 1
  }
}
layer {
  name: "relu5_3"
  type: "ReLU"
  bottom: "conv5_3"
  top: "conv5_3"
}
layer {
  name: "pool5"
  type: "Pooling"
  bottom: "conv5_3"
  top: "pool5"
  pooling_param {
    pool: MAX
    kernel_size: 3
    stride: 1
    pad: 1
  }
}
layer {
  name: "fc6"
  type: "Convolution"
  bottom: "pool5"
  top: "fc6"
  param {
    lr_mult: 1
    decay_mult: 1
  }
  param {
    lr_mult: 2
    decay_mult: 0
  }
  convolution_param {
    num_output: 1024
    pad: 6
    kernel_size: 3
    weight_filler {
      type: "xavier"
    }
    bias_filler {
      type: "constant"
      value: 0
    }
    dilation: 6
  }
}
layer {
  name: "relu6"
  type: "ReLU"
  bottom: "fc6"
  top: "fc6"
}
layer {
  name: "fc7"
  type: "Convolution"
  bottom: "fc6"
  top: "fc7"
  param {
    lr_mult: 1
    decay_mult: 1
  }
  param {
    lr_mult: 2
    decay_mult: 0
  }
  convolution_param {
    num_output: 1024
    kernel_size: 1
    weight_filler {
      type: "xavier"
    }
    bias_filler {
      type: "constant"
      value: 0
    }
  }
}
layer {
  name: "relu7"
  type: "ReLU"
  bottom: "fc7"
  top: "fc7"
}
layer {
  name: "conv6_1"
  type: "Convolution"
  bottom: "fc7"
  top: "conv6_1"
  param {
    lr_mult: 1
    decay_mult: 1
  }
  param {
    lr_mult: 2
    decay_mult: 0
  }
  convolution_param {
    num_output: 256
    pad: 0
    kernel_size: 1
    stride: 1
    weight_filler {
      type: "xavier"
    }
    bias_filler {
      type: "constant"
      value: 0
    }
  }
}
layer {
  name: "conv6_1_relu"
  type: "ReLU"
  bottom: "conv6_1"
  top: "conv6_1"
}
layer {
  name: "conv6_2"
  type: "Convolution"
  bottom: "conv6_1"
  top: "conv6_2"
  param {
    lr_mult: 1
    decay_mult: 1
  }
  param {
    lr_mult: 2
    decay_mult: 0
  }
  convolution_param {
    num_output: 512
    pad: 1
    kernel_size: 3
    stride: 2
    weight_filler {
      type: "xavier"
    }
    bias_filler {
      type: "constant"
      value: 0
    }
  }
}
layer {
  name: "conv6_2_relu"
  type: "ReLU"
  bottom: "conv6_2"
  top: "conv6_2"
}
layer {
  name: "conv7_1"
  type: "Convolution"
  bottom: "conv6_2"
  top: "conv7_1"
  param {
    lr_mult: 1
    decay_mult: 1
  }
  param {
    lr_mult: 2
    decay_mult: 0
  }
  convolution_param {
    num_output: 128
    pad: 0
    kernel_size: 1
    stride: 1
    weight_filler {
      type: "xavier"
    }
    bias_filler {
      type: "constant"
      value: 0
    }
  }
}
layer {
  name: "conv7_1_relu"
  type: "ReLU"
  bottom: "conv7_1"
  top: "conv7_1"
}
layer {
  name: "conv7_2"
  type: "Convolution"
  bottom: "conv7_1"
  top: "conv7_2"
  param {
    lr_mult: 1
    decay_mult: 1
  }
  param {
    lr_mult: 2
    decay_mult: 0
  }
  convolution_param {
    num_output: 256
    pad: 1
    kernel_size: 3
    stride: 2
    weight_filler {
      type: "xavier"
    }
    bias_filler {
      type: "constant"
      value: 0
    }
  }
}
layer {
  name: "conv7_2_relu"
  type: "ReLU"
  bottom: "conv7_2"
  top: "conv7_2"
}
layer {
  name: "conv8_1"
  type: "Convolution"
  bottom: "conv7_2"
  top: "conv8_1"
  param {
    lr_mult: 1
    decay_mult: 1
  }
  param {
    lr_mult: 2
    decay_mult: 0
  }
  convolution_param {
    num_output: 128
    pad: 0
    kernel_size: 1
    stride: 1
    weight_filler {
      type: "xavier"
    }
    bias_filler {
      type: "constant"
      value: 0
    }
  }
}
layer {
  name: "conv8_1_relu"
  type: "ReLU"
  bottom: "conv8_1"
  top: "conv8_1"
}
layer {
  name: "conv8_2"
  type: "Convolution"
  bottom: "conv8_1"
  top: "conv8_2"
  param {
    lr_mult: 1
    decay_mult: 1
  }
  param {
    lr_mult: 2
    decay_mult: 0
  }
  convolution_param {
    num_output: 256
    pad: 0
    kernel_size: 3
    stride: 1
    weight_filler {
      type: "xavier"
    }
    bias_filler {
      type: "constant"
      value: 0
    }
  }
}
layer {
  name: "conv8_2_relu"
  type: "ReLU"
  bottom: "conv8_2"
  top: "conv8_2"
}
layer {
  name: "conv9_1"
  type: "Convolution"
  bottom: "conv8_2"
  top: "conv9_1"
  param {
    lr_mult: 1
    decay_mult: 1
  }
  param {
    lr_mult: 2
    decay_mult: 0
  }
  convolution_param {
    num_output: 128
    pad: 0
    kernel_size: 1
    stride: 1
    weight_filler {
      type: "xavier"
    }
    bias_filler {
      type: "constant"
      value: 0
    }
  }
}
layer {
  name: "conv9_1_relu"
  type: "ReLU"
  bottom: "conv9_1"
  top: "conv9_1"
}
layer {
  name: "conv9_2"
  type: "Convolution"
  bottom: "conv9_1"
  top: "conv9_2"
  param {
    lr_mult: 1
    decay_mult: 1
  }
  param {
    lr_mult: 2
    decay_mult: 0
  }
  convolution_param {
    num_output: 256
    pad: 0
    kernel_size: 3
    stride: 1
    weight_filler {
      type: "xavier"
    }
    bias_filler {
      type: "constant"
      value: 0
    }
  }
}
layer {
  name: "conv9_2_relu"
  type: "ReLU"
  bottom: "conv9_2"
  top: "conv9_2"
}
layer {
  name: "conv4_3_norm"
  type: "Normalize"
  bottom: "conv4_3"
  top: "conv4_3_norm"
  norm_param {
    across_spatial: false
    scale_filler {
      type: "constant"
      value: 20
    }
    channel_shared: false
  }
}
layer {
  name: "conv4_3_norm_mbox_loc"
  type: "Convolution"
  bottom: "conv4_3_norm"
  top: "conv4_3_norm_mbox_loc"
  param {
    lr_mult: 1
    decay_mult: 1
  }
  param {
    lr_mult: 2
    decay_mult: 0
  }
  convolution_param {
    num_output: 16
    pad: 1
    kernel_size: 3
    stride: 1
    weight_filler {
      type: "xavier"
    }
    bias_filler {
      type: "constant"
      value: 0
    }
  }
}
layer {
  name: "conv4_3_norm_mbox_loc_perm"
  type: "Permute"
  bottom: "conv4_3_norm_mbox_loc"
  top: "conv4_3_norm_mbox_loc_perm"
  permute_param {
    order: 0
    order: 2
    order: 3
    order: 1
  }
}
layer {
  name: "conv4_3_norm_mbox_loc_flat"
  type: "Flatten"
  bottom: "conv4_3_norm_mbox_loc_perm"
  top: "conv4_3_norm_mbox_loc_flat"
  flatten_param {
    axis: 1
  }
}
layer {
  name: "conv4_3_norm_mbox_conf"
  type: "Convolution"
  bottom: "conv4_3_norm"
  top: "conv4_3_norm_mbox_conf"
  param {
    lr_mult: 1
    decay_mult: 1
  }
  param {
    lr_mult: 2
    decay_mult: 0
  }
  convolution_param {
    num_output: 84
    pad: 1
    kernel_size: 3
    stride: 1
    weight_filler {
      type: "xavier"
    }
    bias_filler {
      type: "constant"
      value: 0
    }
  }
}
layer {
  name: "conv4_3_norm_mbox_conf_perm"
  type: "Permute"
  bottom: "conv4_3_norm_mbox_conf"
  top: "conv4_3_norm_mbox_conf_perm"
  permute_param {
    order: 0
    order: 2
    order: 3
    order: 1
  }
}
layer {
  name: "conv4_3_norm_mbox_conf_flat"
  type: "Flatten"
  bottom: "conv4_3_norm_mbox_conf_perm"
  top: "conv4_3_norm_mbox_conf_flat"
  flatten_param {
    axis: 1
  }
}
layer {
  name: "conv4_3_norm_mbox_priorbox"
  type: "PriorBox"
  bottom: "conv4_3_norm"
  bottom: "data"
  top: "conv4_3_norm_mbox_priorbox"
  prior_box_param {
    min_size: 30
    max_size: 60
    aspect_ratio: 2
    flip: true
    clip: false
    variance: 0.1
    variance: 0.1
    variance: 0.2
    variance: 0.2
    step: 8
    offset: 0.5
  }
}
layer {
  name: "fc7_mbox_loc"
  type: "Convolution"
  bottom: "fc7"
  top: "fc7_mbox_loc"
  param {
    lr_mult: 1
    decay_mult: 1
  }
  param {
    lr_mult: 2
    decay_mult: 0
  }
  convolution_param {
    num_output: 24
    pad: 1
    kernel_size: 3
    stride: 1
    weight_filler {
      type: "xavier"
    }
    bias_filler {
      type: "constant"
      value: 0
    }
  }
}
layer {
  name: "fc7_mbox_loc_perm"
  type: "Permute"
  bottom: "fc7_mbox_loc"
  top: "fc7_mbox_loc_perm"
  permute_param {
    order: 0
    order: 2
    order: 3
    order: 1
  }
}
layer {
  name: "fc7_mbox_loc_flat"
  type: "Flatten"
  bottom: "fc7_mbox_loc_perm"
  top: "fc7_mbox_loc_flat"
  flatten_param {
    axis: 1
  }
}
layer {
  name: "fc7_mbox_conf"
  type: "Convolution"
  bottom: "fc7"
  top: "fc7_mbox_conf"
  param {
    lr_mult: 1
    decay_mult: 1
  }
  param {
    lr_mult: 2
    decay_mult: 0
  }
  convolution_param {
    num_output: 126
    pad: 1
    kernel_size: 3
    stride: 1
    weight_filler {
      type: "xavier"
    }
    bias_filler {
      type: "constant"
      value: 0
    }
  }
}
layer {
  name: "fc7_mbox_conf_perm"
  type: "Permute"
  bottom: "fc7_mbox_conf"
  top: "fc7_mbox_conf_perm"
  permute_param {
    order: 0
    order: 2
    order: 3
    order: 1
  }
}
layer {
  name: "fc7_mbox_conf_flat"
  type: "Flatten"
  bottom: "fc7_mbox_conf_perm"
  top: "fc7_mbox_conf_flat"
  flatten_param {
    axis: 1
  }
}
layer {
  name: "fc7_mbox_priorbox"
  type: "PriorBox"
  bottom: "fc7"
  bottom: "data"
  top: "fc7_mbox_priorbox"
  prior_box_param {
    min_size: 60
    max_size: 111
    aspect_ratio: 2
    aspect_ratio: 3
    flip: true
    clip: false
    variance: 0.1
    variance: 0.1
    variance: 0.2
    variance: 0.2
    step: 16
    offset: 0.5
  }
}
layer {
  name: "conv6_2_mbox_loc"
  type: "Convolution"
  bottom: "conv6_2"
  top: "conv6_2_mbox_loc"
  param {
    lr_mult: 1
    decay_mult: 1
  }
  param {
    lr_mult: 2
    decay_mult: 0
  }
  convolution_param {
    num_output: 24
    pad: 1
    kernel_size: 3
    stride: 1
    weight_filler {
      type: "xavier"
    }
    bias_filler {
      type: "constant"
      value: 0
    }
  }
}
layer {
  name: "conv6_2_mbox_loc_perm"
  type: "Permute"
  bottom: "conv6_2_mbox_loc"
  top: "conv6_2_mbox_loc_perm"
  permute_param {
    order: 0
    order: 2
    order: 3
    order: 1
  }
}
layer {
  name: "conv6_2_mbox_loc_flat"
  type: "Flatten"
  bottom: "conv6_2_mbox_loc_perm"
  top: "conv6_2_mbox_loc_flat"
  flatten_param {
    axis: 1
  }
}
layer {
  name: "conv6_2_mbox_conf"
  type: "Convolution"
  bottom: "conv6_2"
  top: "conv6_2_mbox_conf"
  param {
    lr_mult: 1
    decay_mult: 1
  }
  param {
    lr_mult: 2
    decay_mult: 0
  }
  convolution_param {
    num_output: 126
    pad: 1
    kernel_size: 3
    stride: 1
    weight_filler {
      type: "xavier"
    }
    bias_filler {
      type: "constant"
      value: 0
    }
  }
}
layer {
  name: "conv6_2_mbox_conf_perm"
  type: "Permute"
  bottom: "conv6_2_mbox_conf"
  top: "conv6_2_mbox_conf_perm"
  permute_param {
    order: 0
    order: 2
    order: 3
    order: 1
  }
}
layer {
  name: "conv6_2_mbox_conf_flat"
  type: "Flatten"
  bottom: "conv6_2_mbox_conf_perm"
  top: "conv6_2_mbox_conf_flat"
  flatten_param {
    axis: 1
  }
}
layer {
  name: "conv6_2_mbox_priorbox"
  type: "PriorBox"
  bottom: "conv6_2"
  bottom: "data"
  top: "conv6_2_mbox_priorbox"
  prior_box_param {
    min_size: 111
    max_size: 162
    aspect_ratio: 2
    aspect_ratio: 3
    flip: true
    clip: false
    variance: 0.1
    variance: 0.1
    variance: 0.2
    variance: 0.2
    step: 32
    offset: 0.5
  }
}
layer {
  name: "conv7_2_mbox_loc"
  type: "Convolution"
  bottom: "conv7_2"
  top: "conv7_2_mbox_loc"
  param {
    lr_mult: 1
    decay_mult: 1
  }
  param {
    lr_mult: 2
    decay_mult: 0
  }
  convolution_param {
    num_output: 24
    pad: 1
    kernel_size: 3
    stride: 1
    weight_filler {
      type: "xavier"
    }
    bias_filler {
      type: "constant"
      value: 0
    }
  }
}
layer {
  name: "conv7_2_mbox_loc_perm"
  type: "Permute"
  bottom: "conv7_2_mbox_loc"
  top: "conv7_2_mbox_loc_perm"
  permute_param {
    order: 0
    order: 2
    order: 3
    order: 1
  }
}
layer {
  name: "conv7_2_mbox_loc_flat"
  type: "Flatten"
  bottom: "conv7_2_mbox_loc_perm"
  top: "conv7_2_mbox_loc_flat"
  flatten_param {
    axis: 1
  }
}
layer {
  name: "conv7_2_mbox_conf"
  type: "Convolution"
  bottom: "conv7_2"
  top: "conv7_2_mbox_conf"
  param {
    lr_mult: 1
    decay_mult: 1
  }
  param {
    lr_mult: 2
    decay_mult: 0
  }
  convolution_param {
    num_output: 126
    pad: 1
    kernel_size: 3
    stride: 1
    weight_filler {
      type: "xavier"
    }
    bias_filler {
      type: "constant"
      value: 0
    }
  }
}
layer {
  name: "conv7_2_mbox_conf_perm"
  type: "Permute"
  bottom: "conv7_2_mbox_conf"
  top: "conv7_2_mbox_conf_perm"
  permute_param {
    order: 0
    order: 2
    order: 3
    order: 1
  }
}
layer {
  name: "conv7_2_mbox_conf_flat"
  type: "Flatten"
  bottom: "conv7_2_mbox_conf_perm"
  top: "conv7_2_mbox_conf_flat"
  flatten_param {
    axis: 1
  }
}
layer {
  name: "conv7_2_mbox_priorbox"
  type: "PriorBox"
  bottom: "conv7_2"
  bottom: "data"
  top: "conv7_2_mbox_priorbox"
  prior_box_param {
    min_size: 162
    max_size: 213
    aspect_ratio: 2
    aspect_ratio: 3
    flip: true
    clip: false
    variance: 0.1
    variance: 0.1
    variance: 0.2
    variance: 0.2
    step: 64
    offset: 0.5
  }
}
layer {
  name: "conv8_2_mbox_loc"
  type: "Convolution"
  bottom: "conv8_2"
  top: "conv8_2_mbox_loc"
  param {
    lr_mult: 1
    decay_mult: 1
  }
  param {
    lr_mult: 2
    decay_mult: 0
  }
  convolution_param {
    num_output: 16
    pad: 1
    kernel_size: 3
    stride: 1
    weight_filler {
      type: "xavier"
    }
    bias_filler {
      type: "constant"
      value: 0
    }
  }
}
layer {
  name: "conv8_2_mbox_loc_perm"
  type: "Permute"
  bottom: "conv8_2_mbox_loc"
  top: "conv8_2_mbox_loc_perm"
  permute_param {
    order: 0
    order: 2
    order: 3
    order: 1
  }
}
layer {
  name: "conv8_2_mbox_loc_flat"
  type: "Flatten"
  bottom: "conv8_2_mbox_loc_perm"
  top: "conv8_2_mbox_loc_flat"
  flatten_param {
    axis: 1
  }
}
layer {
  name: "conv8_2_mbox_conf"
  type: "Convolution"
  bottom: "conv8_2"
  top: "conv8_2_mbox_conf"
  param {
    lr_mult: 1
    decay_mult: 1
  }
  param {
    lr_mult: 2
    decay_mult: 0
  }
  convolution_param {
    num_output: 84
    pad: 1
    kernel_size: 3
    stride: 1
    weight_filler {
      type: "xavier"
    }
    bias_filler {
      type: "constant"
      value: 0
    }
  }
}
layer {
  name: "conv8_2_mbox_conf_perm"
  type: "Permute"
  bottom: "conv8_2_mbox_conf"
  top: "conv8_2_mbox_conf_perm"
  permute_param {
    order: 0
    order: 2
    order: 3
    order: 1
  }
}
layer {
  name: "conv8_2_mbox_conf_flat"
  type: "Flatten"
  bottom: "conv8_2_mbox_conf_perm"
  top: "conv8_2_mbox_conf_flat"
  flatten_param {
    axis: 1
  }
}
layer {
  name: "conv8_2_mbox_priorbox"
  type: "PriorBox"
  bottom: "conv8_2"
  bottom: "data"
  top: "conv8_2_mbox_priorbox"
  prior_box_param {
    min_size: 213
    max_size: 264
    aspect_ratio: 2
    flip: true
    clip: false
    variance: 0.1
    variance: 0.1
    variance: 0.2
    variance: 0.2
    step: 100
    offset: 0.5
  }
}
layer {
  name: "conv9_2_mbox_loc"
  type: "Convolution"
  bottom: "conv9_2"
  top: "conv9_2_mbox_loc"
  param {
    lr_mult: 1
    decay_mult: 1
  }
  param {
    lr_mult: 2
    decay_mult: 0
  }
  convolution_param {
    num_output: 16
    pad: 1
    kernel_size: 3
    stride: 1
    weight_filler {
      type: "xavier"
    }
    bias_filler {
      type: "constant"
      value: 0
    }
  }
}
layer {
  name: "conv9_2_mbox_loc_perm"
  type: "Permute"
  bottom: "conv9_2_mbox_loc"
  top: "conv9_2_mbox_loc_perm"
  permute_param {
    order: 0
    order: 2
    order: 3
    order: 1
  }
}
layer {
  name: "conv9_2_mbox_loc_flat"
  type: "Flatten"
  bottom: "conv9_2_mbox_loc_perm"
  top: "conv9_2_mbox_loc_flat"
  flatten_param {
    axis: 1
  }
}
layer {
  name: "conv9_2_mbox_conf"
  type: "Convolution"
  bottom: "conv9_2"
  top: "conv9_2_mbox_conf"
  param {
    lr_mult: 1
    decay_mult: 1
  }
  param {
    lr_mult: 2
    decay_mult: 0
  }
  convolution_param {
    num_output: 84
    pad: 1
    kernel_size: 3
    stride: 1
    weight_filler {
      type: "xavier"
    }
    bias_filler {
      type: "constant"
      value: 0
    }
  }
}
layer {
  name: "conv9_2_mbox_conf_perm"
  type: "Permute"
  bottom: "conv9_2_mbox_conf"
  top: "conv9_2_mbox_conf_perm"
  permute_param {
    order: 0
    order: 2
    order: 3
    order: 1
  }
}
layer {
  name: "conv9_2_mbox_conf_flat"
  type: "Flatten"
  bottom: "conv9_2_mbox_conf_perm"
  top: "conv9_2_mbox_conf_flat"
  flatten_param {
    axis: 1
  }
}
layer {
  name: "conv9_2_mbox_priorbox"
  type: "PriorBox"
  bottom: "conv9_2"
  bottom: "data"
  top: "conv9_2_mbox_priorbox"
  prior_box_param {
    min_size: 264
    max_size: 315
    aspect_ratio: 2
    flip: true
    clip: false
    variance: 0.1
    variance: 0.1
    variance: 0.2
    variance: 0.2
    step: 300
    offset: 0.5
  }
}
layer {
  name: "mbox_loc"
  type: "Concat"
  bottom: "conv4_3_norm_mbox_loc_flat"
  bottom: "fc7_mbox_loc_flat"
  bottom: "conv6_2_mbox_loc_flat"
  bottom: "conv7_2_mbox_loc_flat"
  bottom: "conv8_2_mbox_loc_flat"
  bottom: "conv9_2_mbox_loc_flat"
  top: "mbox_loc"
  concat_param {
    axis: 1
  }
}
layer {
  name: "mbox_conf"
  type: "Concat"
  bottom: "conv4_3_norm_mbox_conf_flat"
  bottom: "fc7_mbox_conf_flat"
  bottom: "conv6_2_mbox_conf_flat"
  bottom: "conv7_2_mbox_conf_flat"
  bottom: "conv8_2_mbox_conf_flat"
  bottom: "conv9_2_mbox_conf_flat"
  top: "mbox_conf"
  concat_param {
    axis: 1
  }
}
layer {
  name: "mbox_priorbox"
  type: "Concat"
  bottom: "conv4_3_norm_mbox_priorbox"
  bottom: "fc7_mbox_priorbox"
  bottom: "conv6_2_mbox_priorbox"
  bottom: "conv7_2_mbox_priorbox"
  bottom: "conv8_2_mbox_priorbox"
  bottom: "conv9_2_mbox_priorbox"
  top: "mbox_priorbox"
  concat_param {
    axis: 2
  }
}
layer {
  name: "mbox_conf_reshape"
  type: "Reshape"
  bottom: "mbox_conf"
  top: "mbox_conf_reshape"
  reshape_param {
    shape {
      dim: 0
      dim: -1
      dim: 21
    }
  }
}
layer {
  name: "mbox_conf_softmax"
  type: "Softmax"
  bottom: "mbox_conf_reshape"
  top: "mbox_conf_softmax"
  softmax_param {
    axis: 2
  }
}
layer {
  name: "mbox_conf_flatten"
  type: "Flatten"
  bottom: "mbox_conf_softmax"
  top: "mbox_conf_flatten"
  flatten_param {
    axis: 1
  }
}
layer {
  name: "detection_out"
  type: "DetectionOutput"
  bottom: "mbox_loc"
  bottom: "mbox_conf_flatten"
  bottom: "mbox_priorbox"
  bottom: "data"
  top: "detection_out"
  include {
    phase: TEST
  }
  transform_param {
    mean_value: 104
    mean_value: 117
    mean_value: 123
    resize_param {
      prob: 1
      resize_mode: WARP
      height: 720
      width: 960
      interp_mode: LINEAR
    }
  }
  detection_output_param {
    num_classes: 21
    share_location: true
    background_label_id: 0
    nms_param {
      nms_threshold: 0.45
      top_k: 400
    }
    save_output_param {
      output_directory: "data/VOC0712/out"
      label_map_file: "data/VOC0712/labelmap_voc.prototxt"
    }
    code_type: CENTER_SIZE
    keep_top_k: 200
    confidence_threshold: 0.6
    visualize: false
    visualize_threshold: 0.6
  }
}
I0528 16:36:53.320756  1565 layer_factory.hpp:77] Creating layer data
I0528 16:36:53.320796  1565 net.cpp:100] Creating Layer data
I0528 16:36:53.320804  1565 net.cpp:408] data -> data
I0528 16:36:54.209044  1565 video_data_layer.cpp:73] output data size: 1,3,300,300
I0528 16:36:54.213207  1565 net.cpp:150] Setting up data
I0528 16:36:54.213256  1565 net.cpp:157] Top shape: 1 3 300 300 (270000)
I0528 16:36:54.213261  1565 net.cpp:165] Memory required for data: 1080000
I0528 16:36:54.213271  1565 layer_factory.hpp:77] Creating layer data_data_0_split
I0528 16:36:54.213286  1565 net.cpp:100] Creating Layer data_data_0_split
I0528 16:36:54.213291  1565 net.cpp:434] data_data_0_split <- data
I0528 16:36:54.213300  1565 net.cpp:408] data_data_0_split -> data_data_0_split_0
I0528 16:36:54.213321  1565 net.cpp:408] data_data_0_split -> data_data_0_split_1
I0528 16:36:54.213330  1565 net.cpp:408] data_data_0_split -> data_data_0_split_2
I0528 16:36:54.213337  1565 net.cpp:408] data_data_0_split -> data_data_0_split_3
I0528 16:36:54.213343  1565 net.cpp:408] data_data_0_split -> data_data_0_split_4
I0528 16:36:54.213349  1565 net.cpp:408] data_data_0_split -> data_data_0_split_5
I0528 16:36:54.213356  1565 net.cpp:408] data_data_0_split -> data_data_0_split_6
I0528 16:36:54.213366  1565 net.cpp:408] data_data_0_split -> data_data_0_split_7
I0528 16:36:54.213465  1565 net.cpp:150] Setting up data_data_0_split
I0528 16:36:54.213472  1565 net.cpp:157] Top shape: 1 3 300 300 (270000)
I0528 16:36:54.213491  1565 net.cpp:157] Top shape: 1 3 300 300 (270000)
I0528 16:36:54.213496  1565 net.cpp:157] Top shape: 1 3 300 300 (270000)
I0528 16:36:54.213500  1565 net.cpp:157] Top shape: 1 3 300 300 (270000)
I0528 16:36:54.213505  1565 net.cpp:157] Top shape: 1 3 300 300 (270000)
I0528 16:36:54.213510  1565 net.cpp:157] Top shape: 1 3 300 300 (270000)
I0528 16:36:54.213515  1565 net.cpp:157] Top shape: 1 3 300 300 (270000)
I0528 16:36:54.213518  1565 net.cpp:157] Top shape: 1 3 300 300 (270000)
I0528 16:36:54.213522  1565 net.cpp:165] Memory required for data: 9720000
I0528 16:36:54.213526  1565 layer_factory.hpp:77] Creating layer conv1_1
I0528 16:36:54.213542  1565 net.cpp:100] Creating Layer conv1_1
I0528 16:36:54.213547  1565 net.cpp:434] conv1_1 <- data_data_0_split_0
I0528 16:36:54.213557  1565 net.cpp:408] conv1_1 -> conv1_1
I0528 16:36:54.419751  1565 net.cpp:150] Setting up conv1_1
I0528 16:36:54.419785  1565 net.cpp:157] Top shape: 1 64 300 300 (5760000)
I0528 16:36:54.419788  1565 net.cpp:165] Memory required for data: 32760000
I0528 16:36:54.419831  1565 layer_factory.hpp:77] Creating layer relu1_1
I0528 16:36:54.419843  1565 net.cpp:100] Creating Layer relu1_1
I0528 16:36:54.419862  1565 net.cpp:434] relu1_1 <- conv1_1
I0528 16:36:54.419867  1565 net.cpp:395] relu1_1 -> conv1_1 (in-place)
I0528 16:36:54.420019  1565 net.cpp:150] Setting up relu1_1
I0528 16:36:54.420028  1565 net.cpp:157] Top shape: 1 64 300 300 (5760000)
I0528 16:36:54.420042  1565 net.cpp:165] Memory required for data: 55800000
I0528 16:36:54.420047  1565 layer_factory.hpp:77] Creating layer conv1_2
I0528 16:36:54.420060  1565 net.cpp:100] Creating Layer conv1_2
I0528 16:36:54.420071  1565 net.cpp:434] conv1_2 <- conv1_1
I0528 16:36:54.420104  1565 net.cpp:408] conv1_2 -> conv1_2
I0528 16:36:54.422039  1565 net.cpp:150] Setting up conv1_2
I0528 16:36:54.422081  1565 net.cpp:157] Top shape: 1 64 300 300 (5760000)
I0528 16:36:54.422086  1565 net.cpp:165] Memory required for data: 78840000
I0528 16:36:54.422101  1565 layer_factory.hpp:77] Creating layer relu1_2
I0528 16:36:54.422152  1565 net.cpp:100] Creating Layer relu1_2
I0528 16:36:54.422159  1565 net.cpp:434] relu1_2 <- conv1_2
I0528 16:36:54.422175  1565 net.cpp:395] relu1_2 -> conv1_2 (in-place)
I0528 16:36:54.422626  1565 net.cpp:150] Setting up relu1_2
I0528 16:36:54.422638  1565 net.cpp:157] Top shape: 1 64 300 300 (5760000)
I0528 16:36:54.422652  1565 net.cpp:165] Memory required for data: 101880000
I0528 16:36:54.422657  1565 layer_factory.hpp:77] Creating layer pool1
I0528 16:36:54.422663  1565 net.cpp:100] Creating Layer pool1
I0528 16:36:54.422667  1565 net.cpp:434] pool1 <- conv1_2
I0528 16:36:54.422677  1565 net.cpp:408] pool1 -> pool1
I0528 16:36:54.422737  1565 net.cpp:150] Setting up pool1
I0528 16:36:54.422744  1565 net.cpp:157] Top shape: 1 64 150 150 (1440000)
I0528 16:36:54.422758  1565 net.cpp:165] Memory required for data: 107640000
I0528 16:36:54.422761  1565 layer_factory.hpp:77] Creating layer conv2_1
I0528 16:36:54.422772  1565 net.cpp:100] Creating Layer conv2_1
I0528 16:36:54.422777  1565 net.cpp:434] conv2_1 <- pool1
I0528 16:36:54.422783  1565 net.cpp:408] conv2_1 -> conv2_1
I0528 16:36:54.424098  1565 net.cpp:150] Setting up conv2_1
I0528 16:36:54.424127  1565 net.cpp:157] Top shape: 1 128 150 150 (2880000)
I0528 16:36:54.424132  1565 net.cpp:165] Memory required for data: 119160000
I0528 16:36:54.424144  1565 layer_factory.hpp:77] Creating layer relu2_1
I0528 16:36:54.424154  1565 net.cpp:100] Creating Layer relu2_1
I0528 16:36:54.424160  1565 net.cpp:434] relu2_1 <- conv2_1
I0528 16:36:54.424167  1565 net.cpp:395] relu2_1 -> conv2_1 (in-place)
I0528 16:36:54.424669  1565 net.cpp:150] Setting up relu2_1
I0528 16:36:54.424681  1565 net.cpp:157] Top shape: 1 128 150 150 (2880000)
I0528 16:36:54.424695  1565 net.cpp:165] Memory required for data: 130680000
I0528 16:36:54.424700  1565 layer_factory.hpp:77] Creating layer conv2_2
I0528 16:36:54.424711  1565 net.cpp:100] Creating Layer conv2_2
I0528 16:36:54.424716  1565 net.cpp:434] conv2_2 <- conv2_1
I0528 16:36:54.424723  1565 net.cpp:408] conv2_2 -> conv2_2
I0528 16:36:54.426879  1565 net.cpp:150] Setting up conv2_2
I0528 16:36:54.426913  1565 net.cpp:157] Top shape: 1 128 150 150 (2880000)
I0528 16:36:54.426918  1565 net.cpp:165] Memory required for data: 142200000
I0528 16:36:54.426929  1565 layer_factory.hpp:77] Creating layer relu2_2
I0528 16:36:54.426937  1565 net.cpp:100] Creating Layer relu2_2
I0528 16:36:54.426942  1565 net.cpp:434] relu2_2 <- conv2_2
I0528 16:36:54.426949  1565 net.cpp:395] relu2_2 -> conv2_2 (in-place)
I0528 16:36:54.427110  1565 net.cpp:150] Setting up relu2_2
I0528 16:36:54.427120  1565 net.cpp:157] Top shape: 1 128 150 150 (2880000)
I0528 16:36:54.427134  1565 net.cpp:165] Memory required for data: 153720000
I0528 16:36:54.427137  1565 layer_factory.hpp:77] Creating layer pool2
I0528 16:36:54.427145  1565 net.cpp:100] Creating Layer pool2
I0528 16:36:54.427150  1565 net.cpp:434] pool2 <- conv2_2
I0528 16:36:54.427155  1565 net.cpp:408] pool2 -> pool2
I0528 16:36:54.427204  1565 net.cpp:150] Setting up pool2
I0528 16:36:54.427211  1565 net.cpp:157] Top shape: 1 128 75 75 (720000)
I0528 16:36:54.427225  1565 net.cpp:165] Memory required for data: 156600000
I0528 16:36:54.427228  1565 layer_factory.hpp:77] Creating layer conv3_1
I0528 16:36:54.427243  1565 net.cpp:100] Creating Layer conv3_1
I0528 16:36:54.427248  1565 net.cpp:434] conv3_1 <- pool2
I0528 16:36:54.427253  1565 net.cpp:408] conv3_1 -> conv3_1
I0528 16:36:54.431118  1565 net.cpp:150] Setting up conv3_1
I0528 16:36:54.431157  1565 net.cpp:157] Top shape: 1 256 75 75 (1440000)
I0528 16:36:54.431162  1565 net.cpp:165] Memory required for data: 162360000
I0528 16:36:54.431185  1565 layer_factory.hpp:77] Creating layer relu3_1
I0528 16:36:54.431216  1565 net.cpp:100] Creating Layer relu3_1
I0528 16:36:54.431222  1565 net.cpp:434] relu3_1 <- conv3_1
I0528 16:36:54.431243  1565 net.cpp:395] relu3_1 -> conv3_1 (in-place)
I0528 16:36:54.431426  1565 net.cpp:150] Setting up relu3_1
I0528 16:36:54.431434  1565 net.cpp:157] Top shape: 1 256 75 75 (1440000)
I0528 16:36:54.431448  1565 net.cpp:165] Memory required for data: 168120000
I0528 16:36:54.431452  1565 layer_factory.hpp:77] Creating layer conv3_2
I0528 16:36:54.431468  1565 net.cpp:100] Creating Layer conv3_2
I0528 16:36:54.431473  1565 net.cpp:434] conv3_2 <- conv3_1
I0528 16:36:54.431479  1565 net.cpp:408] conv3_2 -> conv3_2
I0528 16:36:54.436357  1565 net.cpp:150] Setting up conv3_2
I0528 16:36:54.436399  1565 net.cpp:157] Top shape: 1 256 75 75 (1440000)
I0528 16:36:54.436403  1565 net.cpp:165] Memory required for data: 173880000
I0528 16:36:54.436416  1565 layer_factory.hpp:77] Creating layer relu3_2
I0528 16:36:54.436431  1565 net.cpp:100] Creating Layer relu3_2
I0528 16:36:54.436436  1565 net.cpp:434] relu3_2 <- conv3_2
I0528 16:36:54.436444  1565 net.cpp:395] relu3_2 -> conv3_2 (in-place)
I0528 16:36:54.436604  1565 net.cpp:150] Setting up relu3_2
I0528 16:36:54.436614  1565 net.cpp:157] Top shape: 1 256 75 75 (1440000)
I0528 16:36:54.436627  1565 net.cpp:165] Memory required for data: 179640000
I0528 16:36:54.436631  1565 layer_factory.hpp:77] Creating layer conv3_3
I0528 16:36:54.436646  1565 net.cpp:100] Creating Layer conv3_3
I0528 16:36:54.436651  1565 net.cpp:434] conv3_3 <- conv3_2
I0528 16:36:54.436667  1565 net.cpp:408] conv3_3 -> conv3_3
I0528 16:36:54.441633  1565 net.cpp:150] Setting up conv3_3
I0528 16:36:54.441676  1565 net.cpp:157] Top shape: 1 256 75 75 (1440000)
I0528 16:36:54.441684  1565 net.cpp:165] Memory required for data: 185400000
I0528 16:36:54.441697  1565 layer_factory.hpp:77] Creating layer relu3_3
I0528 16:36:54.441707  1565 net.cpp:100] Creating Layer relu3_3
I0528 16:36:54.441712  1565 net.cpp:434] relu3_3 <- conv3_3
I0528 16:36:54.441718  1565 net.cpp:395] relu3_3 -> conv3_3 (in-place)
I0528 16:36:54.441915  1565 net.cpp:150] Setting up relu3_3
I0528 16:36:54.441925  1565 net.cpp:157] Top shape: 1 256 75 75 (1440000)
I0528 16:36:54.441941  1565 net.cpp:165] Memory required for data: 191160000
I0528 16:36:54.441946  1565 layer_factory.hpp:77] Creating layer pool3
I0528 16:36:54.441954  1565 net.cpp:100] Creating Layer pool3
I0528 16:36:54.441958  1565 net.cpp:434] pool3 <- conv3_3
I0528 16:36:54.441964  1565 net.cpp:408] pool3 -> pool3
I0528 16:36:54.442019  1565 net.cpp:150] Setting up pool3
I0528 16:36:54.442026  1565 net.cpp:157] Top shape: 1 256 38 38 (369664)
I0528 16:36:54.442039  1565 net.cpp:165] Memory required for data: 192638656
I0528 16:36:54.442044  1565 layer_factory.hpp:77] Creating layer conv4_1
I0528 16:36:54.442071  1565 net.cpp:100] Creating Layer conv4_1
I0528 16:36:54.442076  1565 net.cpp:434] conv4_1 <- pool3
I0528 16:36:54.442092  1565 net.cpp:408] conv4_1 -> conv4_1
I0528 16:36:54.451252  1565 net.cpp:150] Setting up conv4_1
I0528 16:36:54.451295  1565 net.cpp:157] Top shape: 1 512 38 38 (739328)
I0528 16:36:54.451300  1565 net.cpp:165] Memory required for data: 195595968
I0528 16:36:54.451313  1565 layer_factory.hpp:77] Creating layer relu4_1
I0528 16:36:54.451326  1565 net.cpp:100] Creating Layer relu4_1
I0528 16:36:54.451331  1565 net.cpp:434] relu4_1 <- conv4_1
I0528 16:36:54.451339  1565 net.cpp:395] relu4_1 -> conv4_1 (in-place)
I0528 16:36:54.451793  1565 net.cpp:150] Setting up relu4_1
I0528 16:36:54.451823  1565 net.cpp:157] Top shape: 1 512 38 38 (739328)
I0528 16:36:54.451828  1565 net.cpp:165] Memory required for data: 198553280
I0528 16:36:54.451831  1565 layer_factory.hpp:77] Creating layer conv4_2
I0528 16:36:54.451854  1565 net.cpp:100] Creating Layer conv4_2
I0528 16:36:54.451863  1565 net.cpp:434] conv4_2 <- conv4_1
I0528 16:36:54.451869  1565 net.cpp:408] conv4_2 -> conv4_2
I0528 16:36:54.466017  1565 net.cpp:150] Setting up conv4_2
I0528 16:36:54.466073  1565 net.cpp:157] Top shape: 1 512 38 38 (739328)
I0528 16:36:54.466086  1565 net.cpp:165] Memory required for data: 201510592
I0528 16:36:54.466123  1565 layer_factory.hpp:77] Creating layer relu4_2
I0528 16:36:54.466136  1565 net.cpp:100] Creating Layer relu4_2
I0528 16:36:54.466141  1565 net.cpp:434] relu4_2 <- conv4_2
I0528 16:36:54.466148  1565 net.cpp:395] relu4_2 -> conv4_2 (in-place)
I0528 16:36:54.466704  1565 net.cpp:150] Setting up relu4_2
I0528 16:36:54.466718  1565 net.cpp:157] Top shape: 1 512 38 38 (739328)
I0528 16:36:54.466735  1565 net.cpp:165] Memory required for data: 204467904
I0528 16:36:54.466739  1565 layer_factory.hpp:77] Creating layer conv4_3
I0528 16:36:54.466753  1565 net.cpp:100] Creating Layer conv4_3
I0528 16:36:54.466758  1565 net.cpp:434] conv4_3 <- conv4_2
I0528 16:36:54.466764  1565 net.cpp:408] conv4_3 -> conv4_3
I0528 16:36:54.480911  1565 net.cpp:150] Setting up conv4_3
I0528 16:36:54.480949  1565 net.cpp:157] Top shape: 1 512 38 38 (739328)
I0528 16:36:54.480954  1565 net.cpp:165] Memory required for data: 207425216
I0528 16:36:54.480967  1565 layer_factory.hpp:77] Creating layer relu4_3
I0528 16:36:54.480976  1565 net.cpp:100] Creating Layer relu4_3
I0528 16:36:54.480984  1565 net.cpp:434] relu4_3 <- conv4_3
I0528 16:36:54.480993  1565 net.cpp:395] relu4_3 -> conv4_3 (in-place)
I0528 16:36:54.481154  1565 net.cpp:150] Setting up relu4_3
I0528 16:36:54.481165  1565 net.cpp:157] Top shape: 1 512 38 38 (739328)
I0528 16:36:54.481179  1565 net.cpp:165] Memory required for data: 210382528
I0528 16:36:54.481182  1565 layer_factory.hpp:77] Creating layer conv4_3_relu4_3_0_split
I0528 16:36:54.481189  1565 net.cpp:100] Creating Layer conv4_3_relu4_3_0_split
I0528 16:36:54.481192  1565 net.cpp:434] conv4_3_relu4_3_0_split <- conv4_3
I0528 16:36:54.481199  1565 net.cpp:408] conv4_3_relu4_3_0_split -> conv4_3_relu4_3_0_split_0
I0528 16:36:54.481206  1565 net.cpp:408] conv4_3_relu4_3_0_split -> conv4_3_relu4_3_0_split_1
I0528 16:36:54.481252  1565 net.cpp:150] Setting up conv4_3_relu4_3_0_split
I0528 16:36:54.481261  1565 net.cpp:157] Top shape: 1 512 38 38 (739328)
I0528 16:36:54.481276  1565 net.cpp:157] Top shape: 1 512 38 38 (739328)
I0528 16:36:54.481278  1565 net.cpp:165] Memory required for data: 216297152
I0528 16:36:54.481282  1565 layer_factory.hpp:77] Creating layer pool4
I0528 16:36:54.481289  1565 net.cpp:100] Creating Layer pool4
I0528 16:36:54.481292  1565 net.cpp:434] pool4 <- conv4_3_relu4_3_0_split_0
I0528 16:36:54.481298  1565 net.cpp:408] pool4 -> pool4
I0528 16:36:54.481340  1565 net.cpp:150] Setting up pool4
I0528 16:36:54.481348  1565 net.cpp:157] Top shape: 1 512 19 19 (184832)
I0528 16:36:54.481364  1565 net.cpp:165] Memory required for data: 217036480
I0528 16:36:54.481367  1565 layer_factory.hpp:77] Creating layer conv5_1
I0528 16:36:54.481380  1565 net.cpp:100] Creating Layer conv5_1
I0528 16:36:54.481385  1565 net.cpp:434] conv5_1 <- pool4
I0528 16:36:54.481391  1565 net.cpp:408] conv5_1 -> conv5_1
I0528 16:36:54.496366  1565 net.cpp:150] Setting up conv5_1
I0528 16:36:54.496403  1565 net.cpp:157] Top shape: 1 512 19 19 (184832)
I0528 16:36:54.496409  1565 net.cpp:165] Memory required for data: 217775808
I0528 16:36:54.496423  1565 layer_factory.hpp:77] Creating layer relu5_1
I0528 16:36:54.496433  1565 net.cpp:100] Creating Layer relu5_1
I0528 16:36:54.496438  1565 net.cpp:434] relu5_1 <- conv5_1
I0528 16:36:54.496443  1565 net.cpp:395] relu5_1 -> conv5_1 (in-place)
I0528 16:36:54.496615  1565 net.cpp:150] Setting up relu5_1
I0528 16:36:54.496624  1565 net.cpp:157] Top shape: 1 512 19 19 (184832)
I0528 16:36:54.496639  1565 net.cpp:165] Memory required for data: 218515136
I0528 16:36:54.496642  1565 layer_factory.hpp:77] Creating layer conv5_2
I0528 16:36:54.496655  1565 net.cpp:100] Creating Layer conv5_2
I0528 16:36:54.496659  1565 net.cpp:434] conv5_2 <- conv5_1
I0528 16:36:54.496667  1565 net.cpp:408] conv5_2 -> conv5_2
I0528 16:36:54.511453  1565 net.cpp:150] Setting up conv5_2
I0528 16:36:54.511495  1565 net.cpp:157] Top shape: 1 512 19 19 (184832)
I0528 16:36:54.511505  1565 net.cpp:165] Memory required for data: 219254464
I0528 16:36:54.511524  1565 layer_factory.hpp:77] Creating layer relu5_2
I0528 16:36:54.511536  1565 net.cpp:100] Creating Layer relu5_2
I0528 16:36:54.511543  1565 net.cpp:434] relu5_2 <- conv5_2
I0528 16:36:54.511549  1565 net.cpp:395] relu5_2 -> conv5_2 (in-place)
I0528 16:36:54.511700  1565 net.cpp:150] Setting up relu5_2
I0528 16:36:54.511709  1565 net.cpp:157] Top shape: 1 512 19 19 (184832)
I0528 16:36:54.511713  1565 net.cpp:165] Memory required for data: 219993792
I0528 16:36:54.511716  1565 layer_factory.hpp:77] Creating layer conv5_3
I0528 16:36:54.511729  1565 net.cpp:100] Creating Layer conv5_3
I0528 16:36:54.511736  1565 net.cpp:434] conv5_3 <- conv5_2
I0528 16:36:54.511744  1565 net.cpp:408] conv5_3 -> conv5_3
I0528 16:36:54.526002  1565 net.cpp:150] Setting up conv5_3
I0528 16:36:54.526041  1565 net.cpp:157] Top shape: 1 512 19 19 (184832)
I0528 16:36:54.526046  1565 net.cpp:165] Memory required for data: 220733120
I0528 16:36:54.526058  1565 layer_factory.hpp:77] Creating layer relu5_3
I0528 16:36:54.526073  1565 net.cpp:100] Creating Layer relu5_3
I0528 16:36:54.526079  1565 net.cpp:434] relu5_3 <- conv5_3
I0528 16:36:54.526085  1565 net.cpp:395] relu5_3 -> conv5_3 (in-place)
I0528 16:36:54.526253  1565 net.cpp:150] Setting up relu5_3
I0528 16:36:54.526263  1565 net.cpp:157] Top shape: 1 512 19 19 (184832)
I0528 16:36:54.526278  1565 net.cpp:165] Memory required for data: 221472448
I0528 16:36:54.526280  1565 layer_factory.hpp:77] Creating layer pool5
I0528 16:36:54.526289  1565 net.cpp:100] Creating Layer pool5
I0528 16:36:54.526293  1565 net.cpp:434] pool5 <- conv5_3
I0528 16:36:54.526298  1565 net.cpp:408] pool5 -> pool5
I0528 16:36:54.526346  1565 net.cpp:150] Setting up pool5
I0528 16:36:54.526353  1565 net.cpp:157] Top shape: 1 512 19 19 (184832)
I0528 16:36:54.526371  1565 net.cpp:165] Memory required for data: 222211776
I0528 16:36:54.526373  1565 layer_factory.hpp:77] Creating layer fc6
I0528 16:36:54.526386  1565 net.cpp:100] Creating Layer fc6
I0528 16:36:54.526391  1565 net.cpp:434] fc6 <- pool5
I0528 16:36:54.526398  1565 net.cpp:408] fc6 -> fc6
I0528 16:36:54.553097  1565 net.cpp:150] Setting up fc6
I0528 16:36:54.553143  1565 net.cpp:157] Top shape: 1 1024 19 19 (369664)
I0528 16:36:54.553148  1565 net.cpp:165] Memory required for data: 223690432
I0528 16:36:54.553159  1565 layer_factory.hpp:77] Creating layer relu6
I0528 16:36:54.553169  1565 net.cpp:100] Creating Layer relu6
I0528 16:36:54.553174  1565 net.cpp:434] relu6 <- fc6
I0528 16:36:54.553180  1565 net.cpp:395] relu6 -> fc6 (in-place)
I0528 16:36:54.553793  1565 net.cpp:150] Setting up relu6
I0528 16:36:54.553805  1565 net.cpp:157] Top shape: 1 1024 19 19 (369664)
I0528 16:36:54.553819  1565 net.cpp:165] Memory required for data: 225169088
I0528 16:36:54.553823  1565 layer_factory.hpp:77] Creating layer fc7
I0528 16:36:54.553838  1565 net.cpp:100] Creating Layer fc7
I0528 16:36:54.553843  1565 net.cpp:434] fc7 <- fc6
I0528 16:36:54.553851  1565 net.cpp:408] fc7 -> fc7
I0528 16:36:54.561434  1565 net.cpp:150] Setting up fc7
I0528 16:36:54.561471  1565 net.cpp:157] Top shape: 1 1024 19 19 (369664)
I0528 16:36:54.561476  1565 net.cpp:165] Memory required for data: 226647744
I0528 16:36:54.561491  1565 layer_factory.hpp:77] Creating layer relu7
I0528 16:36:54.561501  1565 net.cpp:100] Creating Layer relu7
I0528 16:36:54.561506  1565 net.cpp:434] relu7 <- fc7
I0528 16:36:54.561513  1565 net.cpp:395] relu7 -> fc7 (in-place)
I0528 16:36:54.561671  1565 net.cpp:150] Setting up relu7
I0528 16:36:54.561681  1565 net.cpp:157] Top shape: 1 1024 19 19 (369664)
I0528 16:36:54.561694  1565 net.cpp:165] Memory required for data: 228126400
I0528 16:36:54.561698  1565 layer_factory.hpp:77] Creating layer fc7_relu7_0_split
I0528 16:36:54.561705  1565 net.cpp:100] Creating Layer fc7_relu7_0_split
I0528 16:36:54.561708  1565 net.cpp:434] fc7_relu7_0_split <- fc7
I0528 16:36:54.561715  1565 net.cpp:408] fc7_relu7_0_split -> fc7_relu7_0_split_0
I0528 16:36:54.561723  1565 net.cpp:408] fc7_relu7_0_split -> fc7_relu7_0_split_1
I0528 16:36:54.561745  1565 net.cpp:408] fc7_relu7_0_split -> fc7_relu7_0_split_2
I0528 16:36:54.561776  1565 net.cpp:408] fc7_relu7_0_split -> fc7_relu7_0_split_3
I0528 16:36:54.561843  1565 net.cpp:150] Setting up fc7_relu7_0_split
I0528 16:36:54.561851  1565 net.cpp:157] Top shape: 1 1024 19 19 (369664)
I0528 16:36:54.561859  1565 net.cpp:157] Top shape: 1 1024 19 19 (369664)
I0528 16:36:54.561866  1565 net.cpp:157] Top shape: 1 1024 19 19 (369664)
I0528 16:36:54.561869  1565 net.cpp:157] Top shape: 1 1024 19 19 (369664)
I0528 16:36:54.561872  1565 net.cpp:165] Memory required for data: 234041024
I0528 16:36:54.561875  1565 layer_factory.hpp:77] Creating layer conv6_1
I0528 16:36:54.561888  1565 net.cpp:100] Creating Layer conv6_1
I0528 16:36:54.561892  1565 net.cpp:434] conv6_1 <- fc7_relu7_0_split_0
I0528 16:36:54.561900  1565 net.cpp:408] conv6_1 -> conv6_1
I0528 16:36:54.564848  1565 net.cpp:150] Setting up conv6_1
I0528 16:36:54.564872  1565 net.cpp:157] Top shape: 1 256 19 19 (92416)
I0528 16:36:54.564875  1565 net.cpp:165] Memory required for data: 234410688
I0528 16:36:54.564884  1565 layer_factory.hpp:77] Creating layer conv6_1_relu
I0528 16:36:54.564893  1565 net.cpp:100] Creating Layer conv6_1_relu
I0528 16:36:54.564898  1565 net.cpp:434] conv6_1_relu <- conv6_1
I0528 16:36:54.564904  1565 net.cpp:395] conv6_1_relu -> conv6_1 (in-place)
I0528 16:36:54.565377  1565 net.cpp:150] Setting up conv6_1_relu
I0528 16:36:54.565392  1565 net.cpp:157] Top shape: 1 256 19 19 (92416)
I0528 16:36:54.565394  1565 net.cpp:165] Memory required for data: 234780352
I0528 16:36:54.565398  1565 layer_factory.hpp:77] Creating layer conv6_2
I0528 16:36:54.565410  1565 net.cpp:100] Creating Layer conv6_2
I0528 16:36:54.565415  1565 net.cpp:434] conv6_2 <- conv6_1
I0528 16:36:54.565423  1565 net.cpp:408] conv6_2 -> conv6_2
I0528 16:36:54.573310  1565 net.cpp:150] Setting up conv6_2
I0528 16:36:54.573348  1565 net.cpp:157] Top shape: 1 512 10 10 (51200)
I0528 16:36:54.573354  1565 net.cpp:165] Memory required for data: 234985152
I0528 16:36:54.573371  1565 layer_factory.hpp:77] Creating layer conv6_2_relu
I0528 16:36:54.573381  1565 net.cpp:100] Creating Layer conv6_2_relu
I0528 16:36:54.573386  1565 net.cpp:434] conv6_2_relu <- conv6_2
I0528 16:36:54.573393  1565 net.cpp:395] conv6_2_relu -> conv6_2 (in-place)
I0528 16:36:54.573554  1565 net.cpp:150] Setting up conv6_2_relu
I0528 16:36:54.573563  1565 net.cpp:157] Top shape: 1 512 10 10 (51200)
I0528 16:36:54.573576  1565 net.cpp:165] Memory required for data: 235189952
I0528 16:36:54.573580  1565 layer_factory.hpp:77] Creating layer conv6_2_conv6_2_relu_0_split
I0528 16:36:54.573587  1565 net.cpp:100] Creating Layer conv6_2_conv6_2_relu_0_split
I0528 16:36:54.573592  1565 net.cpp:434] conv6_2_conv6_2_relu_0_split <- conv6_2
I0528 16:36:54.573598  1565 net.cpp:408] conv6_2_conv6_2_relu_0_split -> conv6_2_conv6_2_relu_0_split_0
I0528 16:36:54.573606  1565 net.cpp:408] conv6_2_conv6_2_relu_0_split -> conv6_2_conv6_2_relu_0_split_1
I0528 16:36:54.573613  1565 net.cpp:408] conv6_2_conv6_2_relu_0_split -> conv6_2_conv6_2_relu_0_split_2
I0528 16:36:54.573619  1565 net.cpp:408] conv6_2_conv6_2_relu_0_split -> conv6_2_conv6_2_relu_0_split_3
I0528 16:36:54.573691  1565 net.cpp:150] Setting up conv6_2_conv6_2_relu_0_split
I0528 16:36:54.573698  1565 net.cpp:157] Top shape: 1 512 10 10 (51200)
I0528 16:36:54.573712  1565 net.cpp:157] Top shape: 1 512 10 10 (51200)
I0528 16:36:54.573716  1565 net.cpp:157] Top shape: 1 512 10 10 (51200)
I0528 16:36:54.573720  1565 net.cpp:157] Top shape: 1 512 10 10 (51200)
I0528 16:36:54.573724  1565 net.cpp:165] Memory required for data: 236009152
I0528 16:36:54.573727  1565 layer_factory.hpp:77] Creating layer conv7_1
I0528 16:36:54.573740  1565 net.cpp:100] Creating Layer conv7_1
I0528 16:36:54.573743  1565 net.cpp:434] conv7_1 <- conv6_2_conv6_2_relu_0_split_0
I0528 16:36:54.573751  1565 net.cpp:408] conv7_1 -> conv7_1
I0528 16:36:54.575286  1565 net.cpp:150] Setting up conv7_1
I0528 16:36:54.575317  1565 net.cpp:157] Top shape: 1 128 10 10 (12800)
I0528 16:36:54.575328  1565 net.cpp:165] Memory required for data: 236060352
I0528 16:36:54.575348  1565 layer_factory.hpp:77] Creating layer conv7_1_relu
I0528 16:36:54.575356  1565 net.cpp:100] Creating Layer conv7_1_relu
I0528 16:36:54.575361  1565 net.cpp:434] conv7_1_relu <- conv7_1
I0528 16:36:54.575366  1565 net.cpp:395] conv7_1_relu -> conv7_1 (in-place)
I0528 16:36:54.575536  1565 net.cpp:150] Setting up conv7_1_relu
I0528 16:36:54.575546  1565 net.cpp:157] Top shape: 1 128 10 10 (12800)
I0528 16:36:54.575562  1565 net.cpp:165] Memory required for data: 236111552
I0528 16:36:54.575565  1565 layer_factory.hpp:77] Creating layer conv7_2
I0528 16:36:54.575577  1565 net.cpp:100] Creating Layer conv7_2
I0528 16:36:54.575580  1565 net.cpp:434] conv7_2 <- conv7_1
I0528 16:36:54.575587  1565 net.cpp:408] conv7_2 -> conv7_2
I0528 16:36:54.578641  1565 net.cpp:150] Setting up conv7_2
I0528 16:36:54.578675  1565 net.cpp:157] Top shape: 1 256 5 5 (6400)
I0528 16:36:54.578678  1565 net.cpp:165] Memory required for data: 236137152
I0528 16:36:54.578688  1565 layer_factory.hpp:77] Creating layer conv7_2_relu
I0528 16:36:54.578697  1565 net.cpp:100] Creating Layer conv7_2_relu
I0528 16:36:54.578702  1565 net.cpp:434] conv7_2_relu <- conv7_2
I0528 16:36:54.578709  1565 net.cpp:395] conv7_2_relu -> conv7_2 (in-place)
I0528 16:36:54.578869  1565 net.cpp:150] Setting up conv7_2_relu
I0528 16:36:54.578878  1565 net.cpp:157] Top shape: 1 256 5 5 (6400)
I0528 16:36:54.578892  1565 net.cpp:165] Memory required for data: 236162752
I0528 16:36:54.578896  1565 layer_factory.hpp:77] Creating layer conv7_2_conv7_2_relu_0_split
I0528 16:36:54.578903  1565 net.cpp:100] Creating Layer conv7_2_conv7_2_relu_0_split
I0528 16:36:54.578907  1565 net.cpp:434] conv7_2_conv7_2_relu_0_split <- conv7_2
I0528 16:36:54.578912  1565 net.cpp:408] conv7_2_conv7_2_relu_0_split -> conv7_2_conv7_2_relu_0_split_0
I0528 16:36:54.578922  1565 net.cpp:408] conv7_2_conv7_2_relu_0_split -> conv7_2_conv7_2_relu_0_split_1
I0528 16:36:54.578928  1565 net.cpp:408] conv7_2_conv7_2_relu_0_split -> conv7_2_conv7_2_relu_0_split_2
I0528 16:36:54.578934  1565 net.cpp:408] conv7_2_conv7_2_relu_0_split -> conv7_2_conv7_2_relu_0_split_3
I0528 16:36:54.579005  1565 net.cpp:150] Setting up conv7_2_conv7_2_relu_0_split
I0528 16:36:54.579012  1565 net.cpp:157] Top shape: 1 256 5 5 (6400)
I0528 16:36:54.579027  1565 net.cpp:157] Top shape: 1 256 5 5 (6400)
I0528 16:36:54.579031  1565 net.cpp:157] Top shape: 1 256 5 5 (6400)
I0528 16:36:54.579035  1565 net.cpp:157] Top shape: 1 256 5 5 (6400)
I0528 16:36:54.579038  1565 net.cpp:165] Memory required for data: 236265152
I0528 16:36:54.579042  1565 layer_factory.hpp:77] Creating layer conv8_1
I0528 16:36:54.579054  1565 net.cpp:100] Creating Layer conv8_1
I0528 16:36:54.579059  1565 net.cpp:434] conv8_1 <- conv7_2_conv7_2_relu_0_split_0
I0528 16:36:54.579066  1565 net.cpp:408] conv8_1 -> conv8_1
I0528 16:36:54.580240  1565 net.cpp:150] Setting up conv8_1
I0528 16:36:54.580252  1565 net.cpp:157] Top shape: 1 128 5 5 (3200)
I0528 16:36:54.580266  1565 net.cpp:165] Memory required for data: 236277952
I0528 16:36:54.580274  1565 layer_factory.hpp:77] Creating layer conv8_1_relu
I0528 16:36:54.580281  1565 net.cpp:100] Creating Layer conv8_1_relu
I0528 16:36:54.580284  1565 net.cpp:434] conv8_1_relu <- conv8_1
I0528 16:36:54.580291  1565 net.cpp:395] conv8_1_relu -> conv8_1 (in-place)
I0528 16:36:54.580766  1565 net.cpp:150] Setting up conv8_1_relu
I0528 16:36:54.580778  1565 net.cpp:157] Top shape: 1 128 5 5 (3200)
I0528 16:36:54.580792  1565 net.cpp:165] Memory required for data: 236290752
I0528 16:36:54.580796  1565 layer_factory.hpp:77] Creating layer conv8_2
I0528 16:36:54.580806  1565 net.cpp:100] Creating Layer conv8_2
I0528 16:36:54.580811  1565 net.cpp:434] conv8_2 <- conv8_1
I0528 16:36:54.580818  1565 net.cpp:408] conv8_2 -> conv8_2
I0528 16:36:54.583932  1565 net.cpp:150] Setting up conv8_2
I0528 16:36:54.583968  1565 net.cpp:157] Top shape: 1 256 3 3 (2304)
I0528 16:36:54.583973  1565 net.cpp:165] Memory required for data: 236299968
I0528 16:36:54.583994  1565 layer_factory.hpp:77] Creating layer conv8_2_relu
I0528 16:36:54.584012  1565 net.cpp:100] Creating Layer conv8_2_relu
I0528 16:36:54.584017  1565 net.cpp:434] conv8_2_relu <- conv8_2
I0528 16:36:54.584024  1565 net.cpp:395] conv8_2_relu -> conv8_2 (in-place)
I0528 16:36:54.584184  1565 net.cpp:150] Setting up conv8_2_relu
I0528 16:36:54.584193  1565 net.cpp:157] Top shape: 1 256 3 3 (2304)
I0528 16:36:54.584208  1565 net.cpp:165] Memory required for data: 236309184
I0528 16:36:54.584210  1565 layer_factory.hpp:77] Creating layer conv8_2_conv8_2_relu_0_split
I0528 16:36:54.584218  1565 net.cpp:100] Creating Layer conv8_2_conv8_2_relu_0_split
I0528 16:36:54.584223  1565 net.cpp:434] conv8_2_conv8_2_relu_0_split <- conv8_2
I0528 16:36:54.584228  1565 net.cpp:408] conv8_2_conv8_2_relu_0_split -> conv8_2_conv8_2_relu_0_split_0
I0528 16:36:54.584241  1565 net.cpp:408] conv8_2_conv8_2_relu_0_split -> conv8_2_conv8_2_relu_0_split_1
I0528 16:36:54.584249  1565 net.cpp:408] conv8_2_conv8_2_relu_0_split -> conv8_2_conv8_2_relu_0_split_2
I0528 16:36:54.584254  1565 net.cpp:408] conv8_2_conv8_2_relu_0_split -> conv8_2_conv8_2_relu_0_split_3
I0528 16:36:54.584321  1565 net.cpp:150] Setting up conv8_2_conv8_2_relu_0_split
I0528 16:36:54.584328  1565 net.cpp:157] Top shape: 1 256 3 3 (2304)
I0528 16:36:54.584343  1565 net.cpp:157] Top shape: 1 256 3 3 (2304)
I0528 16:36:54.584347  1565 net.cpp:157] Top shape: 1 256 3 3 (2304)
I0528 16:36:54.584352  1565 net.cpp:157] Top shape: 1 256 3 3 (2304)
I0528 16:36:54.584357  1565 net.cpp:165] Memory required for data: 236346048
I0528 16:36:54.584362  1565 layer_factory.hpp:77] Creating layer conv9_1
I0528 16:36:54.584373  1565 net.cpp:100] Creating Layer conv9_1
I0528 16:36:54.584378  1565 net.cpp:434] conv9_1 <- conv8_2_conv8_2_relu_0_split_0
I0528 16:36:54.584386  1565 net.cpp:408] conv9_1 -> conv9_1
I0528 16:36:54.585544  1565 net.cpp:150] Setting up conv9_1
I0528 16:36:54.585558  1565 net.cpp:157] Top shape: 1 128 3 3 (1152)
I0528 16:36:54.585572  1565 net.cpp:165] Memory required for data: 236350656
I0528 16:36:54.585579  1565 layer_factory.hpp:77] Creating layer conv9_1_relu
I0528 16:36:54.585588  1565 net.cpp:100] Creating Layer conv9_1_relu
I0528 16:36:54.585592  1565 net.cpp:434] conv9_1_relu <- conv9_1
I0528 16:36:54.585597  1565 net.cpp:395] conv9_1_relu -> conv9_1 (in-place)
I0528 16:36:54.585754  1565 net.cpp:150] Setting up conv9_1_relu
I0528 16:36:54.585764  1565 net.cpp:157] Top shape: 1 128 3 3 (1152)
I0528 16:36:54.585777  1565 net.cpp:165] Memory required for data: 236355264
I0528 16:36:54.585782  1565 layer_factory.hpp:77] Creating layer conv9_2
I0528 16:36:54.585791  1565 net.cpp:100] Creating Layer conv9_2
I0528 16:36:54.585795  1565 net.cpp:434] conv9_2 <- conv9_1
I0528 16:36:54.585803  1565 net.cpp:408] conv9_2 -> conv9_2
I0528 16:36:54.588873  1565 net.cpp:150] Setting up conv9_2
I0528 16:36:54.588904  1565 net.cpp:157] Top shape: 1 256 1 1 (256)
I0528 16:36:54.588908  1565 net.cpp:165] Memory required for data: 236356288
I0528 16:36:54.588918  1565 layer_factory.hpp:77] Creating layer conv9_2_relu
I0528 16:36:54.588929  1565 net.cpp:100] Creating Layer conv9_2_relu
I0528 16:36:54.588934  1565 net.cpp:434] conv9_2_relu <- conv9_2
I0528 16:36:54.588940  1565 net.cpp:395] conv9_2_relu -> conv9_2 (in-place)
I0528 16:36:54.589097  1565 net.cpp:150] Setting up conv9_2_relu
I0528 16:36:54.589118  1565 net.cpp:157] Top shape: 1 256 1 1 (256)
I0528 16:36:54.589123  1565 net.cpp:165] Memory required for data: 236357312
I0528 16:36:54.589126  1565 layer_factory.hpp:77] Creating layer conv9_2_conv9_2_relu_0_split
I0528 16:36:54.589133  1565 net.cpp:100] Creating Layer conv9_2_conv9_2_relu_0_split
I0528 16:36:54.589136  1565 net.cpp:434] conv9_2_conv9_2_relu_0_split <- conv9_2
I0528 16:36:54.589143  1565 net.cpp:408] conv9_2_conv9_2_relu_0_split -> conv9_2_conv9_2_relu_0_split_0
I0528 16:36:54.589151  1565 net.cpp:408] conv9_2_conv9_2_relu_0_split -> conv9_2_conv9_2_relu_0_split_1
I0528 16:36:54.589159  1565 net.cpp:408] conv9_2_conv9_2_relu_0_split -> conv9_2_conv9_2_relu_0_split_2
I0528 16:36:54.589251  1565 net.cpp:150] Setting up conv9_2_conv9_2_relu_0_split
I0528 16:36:54.589259  1565 net.cpp:157] Top shape: 1 256 1 1 (256)
I0528 16:36:54.589273  1565 net.cpp:157] Top shape: 1 256 1 1 (256)
I0528 16:36:54.589277  1565 net.cpp:157] Top shape: 1 256 1 1 (256)
I0528 16:36:54.589280  1565 net.cpp:165] Memory required for data: 236360384
I0528 16:36:54.589283  1565 layer_factory.hpp:77] Creating layer conv4_3_norm
I0528 16:36:54.589293  1565 net.cpp:100] Creating Layer conv4_3_norm
I0528 16:36:54.589298  1565 net.cpp:434] conv4_3_norm <- conv4_3_relu4_3_0_split_1
I0528 16:36:54.589303  1565 net.cpp:408] conv4_3_norm -> conv4_3_norm
I0528 16:36:54.589457  1565 net.cpp:150] Setting up conv4_3_norm
I0528 16:36:54.589465  1565 net.cpp:157] Top shape: 1 512 38 38 (739328)
I0528 16:36:54.589478  1565 net.cpp:165] Memory required for data: 239317696
I0528 16:36:54.589486  1565 layer_factory.hpp:77] Creating layer conv4_3_norm_conv4_3_norm_0_split
I0528 16:36:54.589493  1565 net.cpp:100] Creating Layer conv4_3_norm_conv4_3_norm_0_split
I0528 16:36:54.589496  1565 net.cpp:434] conv4_3_norm_conv4_3_norm_0_split <- conv4_3_norm
I0528 16:36:54.589501  1565 net.cpp:408] conv4_3_norm_conv4_3_norm_0_split -> conv4_3_norm_conv4_3_norm_0_split_0
I0528 16:36:54.589509  1565 net.cpp:408] conv4_3_norm_conv4_3_norm_0_split -> conv4_3_norm_conv4_3_norm_0_split_1
I0528 16:36:54.589516  1565 net.cpp:408] conv4_3_norm_conv4_3_norm_0_split -> conv4_3_norm_conv4_3_norm_0_split_2
I0528 16:36:54.589566  1565 net.cpp:150] Setting up conv4_3_norm_conv4_3_norm_0_split
I0528 16:36:54.589573  1565 net.cpp:157] Top shape: 1 512 38 38 (739328)
I0528 16:36:54.589587  1565 net.cpp:157] Top shape: 1 512 38 38 (739328)
I0528 16:36:54.589591  1565 net.cpp:157] Top shape: 1 512 38 38 (739328)
I0528 16:36:54.589596  1565 net.cpp:165] Memory required for data: 248189632
I0528 16:36:54.589598  1565 layer_factory.hpp:77] Creating layer conv4_3_norm_mbox_loc
I0528 16:36:54.589612  1565 net.cpp:100] Creating Layer conv4_3_norm_mbox_loc
I0528 16:36:54.589617  1565 net.cpp:434] conv4_3_norm_mbox_loc <- conv4_3_norm_conv4_3_norm_0_split_0
I0528 16:36:54.589633  1565 net.cpp:408] conv4_3_norm_mbox_loc -> conv4_3_norm_mbox_loc
I0528 16:36:54.591486  1565 net.cpp:150] Setting up conv4_3_norm_mbox_loc
I0528 16:36:54.591513  1565 net.cpp:157] Top shape: 1 16 38 38 (23104)
I0528 16:36:54.591518  1565 net.cpp:165] Memory required for data: 248282048
I0528 16:36:54.591527  1565 layer_factory.hpp:77] Creating layer conv4_3_norm_mbox_loc_perm
I0528 16:36:54.591540  1565 net.cpp:100] Creating Layer conv4_3_norm_mbox_loc_perm
I0528 16:36:54.591547  1565 net.cpp:434] conv4_3_norm_mbox_loc_perm <- conv4_3_norm_mbox_loc
I0528 16:36:54.591554  1565 net.cpp:408] conv4_3_norm_mbox_loc_perm -> conv4_3_norm_mbox_loc_perm
I0528 16:36:54.591662  1565 net.cpp:150] Setting up conv4_3_norm_mbox_loc_perm
I0528 16:36:54.591672  1565 net.cpp:157] Top shape: 1 38 38 16 (23104)
I0528 16:36:54.591676  1565 net.cpp:165] Memory required for data: 248374464
I0528 16:36:54.591680  1565 layer_factory.hpp:77] Creating layer conv4_3_norm_mbox_loc_flat
I0528 16:36:54.591687  1565 net.cpp:100] Creating Layer conv4_3_norm_mbox_loc_flat
I0528 16:36:54.591691  1565 net.cpp:434] conv4_3_norm_mbox_loc_flat <- conv4_3_norm_mbox_loc_perm
I0528 16:36:54.591697  1565 net.cpp:408] conv4_3_norm_mbox_loc_flat -> conv4_3_norm_mbox_loc_flat
I0528 16:36:54.591747  1565 net.cpp:150] Setting up conv4_3_norm_mbox_loc_flat
I0528 16:36:54.591754  1565 net.cpp:157] Top shape: 1 23104 (23104)
I0528 16:36:54.591768  1565 net.cpp:165] Memory required for data: 248466880
I0528 16:36:54.591771  1565 layer_factory.hpp:77] Creating layer conv4_3_norm_mbox_conf
I0528 16:36:54.591789  1565 net.cpp:100] Creating Layer conv4_3_norm_mbox_conf
I0528 16:36:54.591810  1565 net.cpp:434] conv4_3_norm_mbox_conf <- conv4_3_norm_conv4_3_norm_0_split_1
I0528 16:36:54.591828  1565 net.cpp:408] conv4_3_norm_mbox_conf -> conv4_3_norm_mbox_conf
I0528 16:36:54.596344  1565 net.cpp:150] Setting up conv4_3_norm_mbox_conf
I0528 16:36:54.596390  1565 net.cpp:157] Top shape: 1 84 38 38 (121296)
I0528 16:36:54.596395  1565 net.cpp:165] Memory required for data: 248952064
I0528 16:36:54.596410  1565 layer_factory.hpp:77] Creating layer conv4_3_norm_mbox_conf_perm
I0528 16:36:54.596421  1565 net.cpp:100] Creating Layer conv4_3_norm_mbox_conf_perm
I0528 16:36:54.596427  1565 net.cpp:434] conv4_3_norm_mbox_conf_perm <- conv4_3_norm_mbox_conf
I0528 16:36:54.596436  1565 net.cpp:408] conv4_3_norm_mbox_conf_perm -> conv4_3_norm_mbox_conf_perm
I0528 16:36:54.596539  1565 net.cpp:150] Setting up conv4_3_norm_mbox_conf_perm
I0528 16:36:54.596547  1565 net.cpp:157] Top shape: 1 38 38 84 (121296)
I0528 16:36:54.596550  1565 net.cpp:165] Memory required for data: 249437248
I0528 16:36:54.596554  1565 layer_factory.hpp:77] Creating layer conv4_3_norm_mbox_conf_flat
I0528 16:36:54.596561  1565 net.cpp:100] Creating Layer conv4_3_norm_mbox_conf_flat
I0528 16:36:54.596565  1565 net.cpp:434] conv4_3_norm_mbox_conf_flat <- conv4_3_norm_mbox_conf_perm
I0528 16:36:54.596571  1565 net.cpp:408] conv4_3_norm_mbox_conf_flat -> conv4_3_norm_mbox_conf_flat
I0528 16:36:54.596596  1565 net.cpp:150] Setting up conv4_3_norm_mbox_conf_flat
I0528 16:36:54.596603  1565 net.cpp:157] Top shape: 1 121296 (121296)
I0528 16:36:54.596609  1565 net.cpp:165] Memory required for data: 249922432
I0528 16:36:54.596612  1565 layer_factory.hpp:77] Creating layer conv4_3_norm_mbox_priorbox
I0528 16:36:54.596621  1565 net.cpp:100] Creating Layer conv4_3_norm_mbox_priorbox
I0528 16:36:54.596624  1565 net.cpp:434] conv4_3_norm_mbox_priorbox <- conv4_3_norm_conv4_3_norm_0_split_2
I0528 16:36:54.596629  1565 net.cpp:434] conv4_3_norm_mbox_priorbox <- data_data_0_split_1
I0528 16:36:54.596637  1565 net.cpp:408] conv4_3_norm_mbox_priorbox -> conv4_3_norm_mbox_priorbox
I0528 16:36:54.596670  1565 net.cpp:150] Setting up conv4_3_norm_mbox_priorbox
I0528 16:36:54.596676  1565 net.cpp:157] Top shape: 1 2 23104 (46208)
I0528 16:36:54.596680  1565 net.cpp:165] Memory required for data: 250107264
I0528 16:36:54.596684  1565 layer_factory.hpp:77] Creating layer fc7_mbox_loc
I0528 16:36:54.596696  1565 net.cpp:100] Creating Layer fc7_mbox_loc
I0528 16:36:54.596701  1565 net.cpp:434] fc7_mbox_loc <- fc7_relu7_0_split_1
I0528 16:36:54.596709  1565 net.cpp:408] fc7_mbox_loc -> fc7_mbox_loc
I0528 16:36:54.599643  1565 net.cpp:150] Setting up fc7_mbox_loc
I0528 16:36:54.599689  1565 net.cpp:157] Top shape: 1 24 19 19 (8664)
I0528 16:36:54.599692  1565 net.cpp:165] Memory required for data: 250141920
I0528 16:36:54.599704  1565 layer_factory.hpp:77] Creating layer fc7_mbox_loc_perm
I0528 16:36:54.599715  1565 net.cpp:100] Creating Layer fc7_mbox_loc_perm
I0528 16:36:54.599720  1565 net.cpp:434] fc7_mbox_loc_perm <- fc7_mbox_loc
I0528 16:36:54.599730  1565 net.cpp:408] fc7_mbox_loc_perm -> fc7_mbox_loc_perm
I0528 16:36:54.599869  1565 net.cpp:150] Setting up fc7_mbox_loc_perm
I0528 16:36:54.599879  1565 net.cpp:157] Top shape: 1 19 19 24 (8664)
I0528 16:36:54.599891  1565 net.cpp:165] Memory required for data: 250176576
I0528 16:36:54.599895  1565 layer_factory.hpp:77] Creating layer fc7_mbox_loc_flat
I0528 16:36:54.599903  1565 net.cpp:100] Creating Layer fc7_mbox_loc_flat
I0528 16:36:54.599907  1565 net.cpp:434] fc7_mbox_loc_flat <- fc7_mbox_loc_perm
I0528 16:36:54.599913  1565 net.cpp:408] fc7_mbox_loc_flat -> fc7_mbox_loc_flat
I0528 16:36:54.599937  1565 net.cpp:150] Setting up fc7_mbox_loc_flat
I0528 16:36:54.599954  1565 net.cpp:157] Top shape: 1 8664 (8664)
I0528 16:36:54.599957  1565 net.cpp:165] Memory required for data: 250211232
I0528 16:36:54.599970  1565 layer_factory.hpp:77] Creating layer fc7_mbox_conf
I0528 16:36:54.599987  1565 net.cpp:100] Creating Layer fc7_mbox_conf
I0528 16:36:54.599992  1565 net.cpp:434] fc7_mbox_conf <- fc7_relu7_0_split_2
I0528 16:36:54.599997  1565 net.cpp:408] fc7_mbox_conf -> fc7_mbox_conf
I0528 16:36:54.608464  1565 net.cpp:150] Setting up fc7_mbox_conf
I0528 16:36:54.608503  1565 net.cpp:157] Top shape: 1 126 19 19 (45486)
I0528 16:36:54.608515  1565 net.cpp:165] Memory required for data: 250393176
I0528 16:36:54.608535  1565 layer_factory.hpp:77] Creating layer fc7_mbox_conf_perm
I0528 16:36:54.608548  1565 net.cpp:100] Creating Layer fc7_mbox_conf_perm
I0528 16:36:54.608558  1565 net.cpp:434] fc7_mbox_conf_perm <- fc7_mbox_conf
I0528 16:36:54.608566  1565 net.cpp:408] fc7_mbox_conf_perm -> fc7_mbox_conf_perm
I0528 16:36:54.608683  1565 net.cpp:150] Setting up fc7_mbox_conf_perm
I0528 16:36:54.608691  1565 net.cpp:157] Top shape: 1 19 19 126 (45486)
I0528 16:36:54.608705  1565 net.cpp:165] Memory required for data: 250575120
I0528 16:36:54.608710  1565 layer_factory.hpp:77] Creating layer fc7_mbox_conf_flat
I0528 16:36:54.608717  1565 net.cpp:100] Creating Layer fc7_mbox_conf_flat
I0528 16:36:54.608721  1565 net.cpp:434] fc7_mbox_conf_flat <- fc7_mbox_conf_perm
I0528 16:36:54.608726  1565 net.cpp:408] fc7_mbox_conf_flat -> fc7_mbox_conf_flat
I0528 16:36:54.608753  1565 net.cpp:150] Setting up fc7_mbox_conf_flat
I0528 16:36:54.608769  1565 net.cpp:157] Top shape: 1 45486 (45486)
I0528 16:36:54.608773  1565 net.cpp:165] Memory required for data: 250757064
I0528 16:36:54.608786  1565 layer_factory.hpp:77] Creating layer fc7_mbox_priorbox
I0528 16:36:54.608795  1565 net.cpp:100] Creating Layer fc7_mbox_priorbox
I0528 16:36:54.608799  1565 net.cpp:434] fc7_mbox_priorbox <- fc7_relu7_0_split_3
I0528 16:36:54.608808  1565 net.cpp:434] fc7_mbox_priorbox <- data_data_0_split_2
I0528 16:36:54.608814  1565 net.cpp:408] fc7_mbox_priorbox -> fc7_mbox_priorbox
I0528 16:36:54.608853  1565 net.cpp:150] Setting up fc7_mbox_priorbox
I0528 16:36:54.608860  1565 net.cpp:157] Top shape: 1 2 8664 (17328)
I0528 16:36:54.608875  1565 net.cpp:165] Memory required for data: 250826376
I0528 16:36:54.608877  1565 layer_factory.hpp:77] Creating layer conv6_2_mbox_loc
I0528 16:36:54.608891  1565 net.cpp:100] Creating Layer conv6_2_mbox_loc
I0528 16:36:54.608894  1565 net.cpp:434] conv6_2_mbox_loc <- conv6_2_conv6_2_relu_0_split_1
I0528 16:36:54.608902  1565 net.cpp:408] conv6_2_mbox_loc -> conv6_2_mbox_loc
I0528 16:36:54.610909  1565 net.cpp:150] Setting up conv6_2_mbox_loc
I0528 16:36:54.610939  1565 net.cpp:157] Top shape: 1 24 10 10 (2400)
I0528 16:36:54.610944  1565 net.cpp:165] Memory required for data: 250835976
I0528 16:36:54.610952  1565 layer_factory.hpp:77] Creating layer conv6_2_mbox_loc_perm
I0528 16:36:54.610960  1565 net.cpp:100] Creating Layer conv6_2_mbox_loc_perm
I0528 16:36:54.610965  1565 net.cpp:434] conv6_2_mbox_loc_perm <- conv6_2_mbox_loc
I0528 16:36:54.610973  1565 net.cpp:408] conv6_2_mbox_loc_perm -> conv6_2_mbox_loc_perm
I0528 16:36:54.611089  1565 net.cpp:150] Setting up conv6_2_mbox_loc_perm
I0528 16:36:54.611098  1565 net.cpp:157] Top shape: 1 10 10 24 (2400)
I0528 16:36:54.611114  1565 net.cpp:165] Memory required for data: 250845576
I0528 16:36:54.611119  1565 layer_factory.hpp:77] Creating layer conv6_2_mbox_loc_flat
I0528 16:36:54.611126  1565 net.cpp:100] Creating Layer conv6_2_mbox_loc_flat
I0528 16:36:54.611130  1565 net.cpp:434] conv6_2_mbox_loc_flat <- conv6_2_mbox_loc_perm
I0528 16:36:54.611136  1565 net.cpp:408] conv6_2_mbox_loc_flat -> conv6_2_mbox_loc_flat
I0528 16:36:54.611161  1565 net.cpp:150] Setting up conv6_2_mbox_loc_flat
I0528 16:36:54.611177  1565 net.cpp:157] Top shape: 1 2400 (2400)
I0528 16:36:54.611181  1565 net.cpp:165] Memory required for data: 250855176
I0528 16:36:54.611194  1565 layer_factory.hpp:77] Creating layer conv6_2_mbox_conf
I0528 16:36:54.611207  1565 net.cpp:100] Creating Layer conv6_2_mbox_conf
I0528 16:36:54.611212  1565 net.cpp:434] conv6_2_mbox_conf <- conv6_2_conv6_2_relu_0_split_2
I0528 16:36:54.611217  1565 net.cpp:408] conv6_2_mbox_conf -> conv6_2_mbox_conf
I0528 16:36:54.616369  1565 net.cpp:150] Setting up conv6_2_mbox_conf
I0528 16:36:54.616406  1565 net.cpp:157] Top shape: 1 126 10 10 (12600)
I0528 16:36:54.616411  1565 net.cpp:165] Memory required for data: 250905576
I0528 16:36:54.616425  1565 layer_factory.hpp:77] Creating layer conv6_2_mbox_conf_perm
I0528 16:36:54.616442  1565 net.cpp:100] Creating Layer conv6_2_mbox_conf_perm
I0528 16:36:54.616466  1565 net.cpp:434] conv6_2_mbox_conf_perm <- conv6_2_mbox_conf
I0528 16:36:54.616487  1565 net.cpp:408] conv6_2_mbox_conf_perm -> conv6_2_mbox_conf_perm
I0528 16:36:54.616598  1565 net.cpp:150] Setting up conv6_2_mbox_conf_perm
I0528 16:36:54.616611  1565 net.cpp:157] Top shape: 1 10 10 126 (12600)
I0528 16:36:54.616614  1565 net.cpp:165] Memory required for data: 250955976
I0528 16:36:54.616618  1565 layer_factory.hpp:77] Creating layer conv6_2_mbox_conf_flat
I0528 16:36:54.616626  1565 net.cpp:100] Creating Layer conv6_2_mbox_conf_flat
I0528 16:36:54.616629  1565 net.cpp:434] conv6_2_mbox_conf_flat <- conv6_2_mbox_conf_perm
I0528 16:36:54.616634  1565 net.cpp:408] conv6_2_mbox_conf_flat -> conv6_2_mbox_conf_flat
I0528 16:36:54.616662  1565 net.cpp:150] Setting up conv6_2_mbox_conf_flat
I0528 16:36:54.616670  1565 net.cpp:157] Top shape: 1 12600 (12600)
I0528 16:36:54.616674  1565 net.cpp:165] Memory required for data: 251006376
I0528 16:36:54.616678  1565 layer_factory.hpp:77] Creating layer conv6_2_mbox_priorbox
I0528 16:36:54.616688  1565 net.cpp:100] Creating Layer conv6_2_mbox_priorbox
I0528 16:36:54.616693  1565 net.cpp:434] conv6_2_mbox_priorbox <- conv6_2_conv6_2_relu_0_split_3
I0528 16:36:54.616698  1565 net.cpp:434] conv6_2_mbox_priorbox <- data_data_0_split_3
I0528 16:36:54.616704  1565 net.cpp:408] conv6_2_mbox_priorbox -> conv6_2_mbox_priorbox
I0528 16:36:54.616737  1565 net.cpp:150] Setting up conv6_2_mbox_priorbox
I0528 16:36:54.616746  1565 net.cpp:157] Top shape: 1 2 2400 (4800)
I0528 16:36:54.616750  1565 net.cpp:165] Memory required for data: 251025576
I0528 16:36:54.616753  1565 layer_factory.hpp:77] Creating layer conv7_2_mbox_loc
I0528 16:36:54.616766  1565 net.cpp:100] Creating Layer conv7_2_mbox_loc
I0528 16:36:54.616771  1565 net.cpp:434] conv7_2_mbox_loc <- conv7_2_conv7_2_relu_0_split_1
I0528 16:36:54.616777  1565 net.cpp:408] conv7_2_mbox_loc -> conv7_2_mbox_loc
I0528 16:36:54.618168  1565 net.cpp:150] Setting up conv7_2_mbox_loc
I0528 16:36:54.618182  1565 net.cpp:157] Top shape: 1 24 5 5 (600)
I0528 16:36:54.618196  1565 net.cpp:165] Memory required for data: 251027976
I0528 16:36:54.618203  1565 layer_factory.hpp:77] Creating layer conv7_2_mbox_loc_perm
I0528 16:36:54.618212  1565 net.cpp:100] Creating Layer conv7_2_mbox_loc_perm
I0528 16:36:54.618216  1565 net.cpp:434] conv7_2_mbox_loc_perm <- conv7_2_mbox_loc
I0528 16:36:54.618222  1565 net.cpp:408] conv7_2_mbox_loc_perm -> conv7_2_mbox_loc_perm
I0528 16:36:54.618336  1565 net.cpp:150] Setting up conv7_2_mbox_loc_perm
I0528 16:36:54.618345  1565 net.cpp:157] Top shape: 1 5 5 24 (600)
I0528 16:36:54.618360  1565 net.cpp:165] Memory required for data: 251030376
I0528 16:36:54.618365  1565 layer_factory.hpp:77] Creating layer conv7_2_mbox_loc_flat
I0528 16:36:54.618371  1565 net.cpp:100] Creating Layer conv7_2_mbox_loc_flat
I0528 16:36:54.618373  1565 net.cpp:434] conv7_2_mbox_loc_flat <- conv7_2_mbox_loc_perm
I0528 16:36:54.618381  1565 net.cpp:408] conv7_2_mbox_loc_flat -> conv7_2_mbox_loc_flat
I0528 16:36:54.618417  1565 net.cpp:150] Setting up conv7_2_mbox_loc_flat
I0528 16:36:54.618423  1565 net.cpp:157] Top shape: 1 600 (600)
I0528 16:36:54.618435  1565 net.cpp:165] Memory required for data: 251032776
I0528 16:36:54.618439  1565 layer_factory.hpp:77] Creating layer conv7_2_mbox_conf
I0528 16:36:54.618449  1565 net.cpp:100] Creating Layer conv7_2_mbox_conf
I0528 16:36:54.618454  1565 net.cpp:434] conv7_2_mbox_conf <- conv7_2_conv7_2_relu_0_split_2
I0528 16:36:54.618461  1565 net.cpp:408] conv7_2_mbox_conf -> conv7_2_mbox_conf
I0528 16:36:54.621873  1565 net.cpp:150] Setting up conv7_2_mbox_conf
I0528 16:36:54.621906  1565 net.cpp:157] Top shape: 1 126 5 5 (3150)
I0528 16:36:54.621911  1565 net.cpp:165] Memory required for data: 251045376
I0528 16:36:54.621920  1565 layer_factory.hpp:77] Creating layer conv7_2_mbox_conf_perm
I0528 16:36:54.621929  1565 net.cpp:100] Creating Layer conv7_2_mbox_conf_perm
I0528 16:36:54.621934  1565 net.cpp:434] conv7_2_mbox_conf_perm <- conv7_2_mbox_conf
I0528 16:36:54.621949  1565 net.cpp:408] conv7_2_mbox_conf_perm -> conv7_2_mbox_conf_perm
I0528 16:36:54.622095  1565 net.cpp:150] Setting up conv7_2_mbox_conf_perm
I0528 16:36:54.622103  1565 net.cpp:157] Top shape: 1 5 5 126 (3150)
I0528 16:36:54.622131  1565 net.cpp:165] Memory required for data: 251057976
I0528 16:36:54.622135  1565 layer_factory.hpp:77] Creating layer conv7_2_mbox_conf_flat
I0528 16:36:54.622143  1565 net.cpp:100] Creating Layer conv7_2_mbox_conf_flat
I0528 16:36:54.622148  1565 net.cpp:434] conv7_2_mbox_conf_flat <- conv7_2_mbox_conf_perm
I0528 16:36:54.622153  1565 net.cpp:408] conv7_2_mbox_conf_flat -> conv7_2_mbox_conf_flat
I0528 16:36:54.622179  1565 net.cpp:150] Setting up conv7_2_mbox_conf_flat
I0528 16:36:54.622196  1565 net.cpp:157] Top shape: 1 3150 (3150)
I0528 16:36:54.622210  1565 net.cpp:165] Memory required for data: 251070576
I0528 16:36:54.622212  1565 layer_factory.hpp:77] Creating layer conv7_2_mbox_priorbox
I0528 16:36:54.622221  1565 net.cpp:100] Creating Layer conv7_2_mbox_priorbox
I0528 16:36:54.622226  1565 net.cpp:434] conv7_2_mbox_priorbox <- conv7_2_conv7_2_relu_0_split_3
I0528 16:36:54.622234  1565 net.cpp:434] conv7_2_mbox_priorbox <- data_data_0_split_4
I0528 16:36:54.622242  1565 net.cpp:408] conv7_2_mbox_priorbox -> conv7_2_mbox_priorbox
I0528 16:36:54.622278  1565 net.cpp:150] Setting up conv7_2_mbox_priorbox
I0528 16:36:54.622285  1565 net.cpp:157] Top shape: 1 2 600 (1200)
I0528 16:36:54.622298  1565 net.cpp:165] Memory required for data: 251075376
I0528 16:36:54.622301  1565 layer_factory.hpp:77] Creating layer conv8_2_mbox_loc
I0528 16:36:54.622313  1565 net.cpp:100] Creating Layer conv8_2_mbox_loc
I0528 16:36:54.622318  1565 net.cpp:434] conv8_2_mbox_loc <- conv8_2_conv8_2_relu_0_split_1
I0528 16:36:54.622325  1565 net.cpp:408] conv8_2_mbox_loc -> conv8_2_mbox_loc
I0528 16:36:54.623889  1565 net.cpp:150] Setting up conv8_2_mbox_loc
I0528 16:36:54.623903  1565 net.cpp:157] Top shape: 1 16 3 3 (144)
I0528 16:36:54.623917  1565 net.cpp:165] Memory required for data: 251075952
I0528 16:36:54.623935  1565 layer_factory.hpp:77] Creating layer conv8_2_mbox_loc_perm
I0528 16:36:54.623945  1565 net.cpp:100] Creating Layer conv8_2_mbox_loc_perm
I0528 16:36:54.623950  1565 net.cpp:434] conv8_2_mbox_loc_perm <- conv8_2_mbox_loc
I0528 16:36:54.623955  1565 net.cpp:408] conv8_2_mbox_loc_perm -> conv8_2_mbox_loc_perm
I0528 16:36:54.624068  1565 net.cpp:150] Setting up conv8_2_mbox_loc_perm
I0528 16:36:54.624076  1565 net.cpp:157] Top shape: 1 3 3 16 (144)
I0528 16:36:54.624079  1565 net.cpp:165] Memory required for data: 251076528
I0528 16:36:54.624083  1565 layer_factory.hpp:77] Creating layer conv8_2_mbox_loc_flat
I0528 16:36:54.624090  1565 net.cpp:100] Creating Layer conv8_2_mbox_loc_flat
I0528 16:36:54.624109  1565 net.cpp:434] conv8_2_mbox_loc_flat <- conv8_2_mbox_loc_perm
I0528 16:36:54.624115  1565 net.cpp:408] conv8_2_mbox_loc_flat -> conv8_2_mbox_loc_flat
I0528 16:36:54.624141  1565 net.cpp:150] Setting up conv8_2_mbox_loc_flat
I0528 16:36:54.624150  1565 net.cpp:157] Top shape: 1 144 (144)
I0528 16:36:54.624153  1565 net.cpp:165] Memory required for data: 251077104
I0528 16:36:54.624156  1565 layer_factory.hpp:77] Creating layer conv8_2_mbox_conf
I0528 16:36:54.624168  1565 net.cpp:100] Creating Layer conv8_2_mbox_conf
I0528 16:36:54.624172  1565 net.cpp:434] conv8_2_mbox_conf <- conv8_2_conv8_2_relu_0_split_2
I0528 16:36:54.624179  1565 net.cpp:408] conv8_2_mbox_conf -> conv8_2_mbox_conf
I0528 16:36:54.626595  1565 net.cpp:150] Setting up conv8_2_mbox_conf
I0528 16:36:54.626626  1565 net.cpp:157] Top shape: 1 84 3 3 (756)
I0528 16:36:54.626631  1565 net.cpp:165] Memory required for data: 251080128
I0528 16:36:54.626641  1565 layer_factory.hpp:77] Creating layer conv8_2_mbox_conf_perm
I0528 16:36:54.626652  1565 net.cpp:100] Creating Layer conv8_2_mbox_conf_perm
I0528 16:36:54.626657  1565 net.cpp:434] conv8_2_mbox_conf_perm <- conv8_2_mbox_conf
I0528 16:36:54.626662  1565 net.cpp:408] conv8_2_mbox_conf_perm -> conv8_2_mbox_conf_perm
I0528 16:36:54.626785  1565 net.cpp:150] Setting up conv8_2_mbox_conf_perm
I0528 16:36:54.626801  1565 net.cpp:157] Top shape: 1 3 3 84 (756)
I0528 16:36:54.626814  1565 net.cpp:165] Memory required for data: 251083152
I0528 16:36:54.626817  1565 layer_factory.hpp:77] Creating layer conv8_2_mbox_conf_flat
I0528 16:36:54.626826  1565 net.cpp:100] Creating Layer conv8_2_mbox_conf_flat
I0528 16:36:54.626829  1565 net.cpp:434] conv8_2_mbox_conf_flat <- conv8_2_mbox_conf_perm
I0528 16:36:54.626834  1565 net.cpp:408] conv8_2_mbox_conf_flat -> conv8_2_mbox_conf_flat
I0528 16:36:54.626874  1565 net.cpp:150] Setting up conv8_2_mbox_conf_flat
I0528 16:36:54.626881  1565 net.cpp:157] Top shape: 1 756 (756)
I0528 16:36:54.626894  1565 net.cpp:165] Memory required for data: 251086176
I0528 16:36:54.626898  1565 layer_factory.hpp:77] Creating layer conv8_2_mbox_priorbox
I0528 16:36:54.626906  1565 net.cpp:100] Creating Layer conv8_2_mbox_priorbox
I0528 16:36:54.626911  1565 net.cpp:434] conv8_2_mbox_priorbox <- conv8_2_conv8_2_relu_0_split_3
I0528 16:36:54.626916  1565 net.cpp:434] conv8_2_mbox_priorbox <- data_data_0_split_5
I0528 16:36:54.626932  1565 net.cpp:408] conv8_2_mbox_priorbox -> conv8_2_mbox_priorbox
I0528 16:36:54.626962  1565 net.cpp:150] Setting up conv8_2_mbox_priorbox
I0528 16:36:54.626969  1565 net.cpp:157] Top shape: 1 2 144 (288)
I0528 16:36:54.626972  1565 net.cpp:165] Memory required for data: 251087328
I0528 16:36:54.626976  1565 layer_factory.hpp:77] Creating layer conv9_2_mbox_loc
I0528 16:36:54.626992  1565 net.cpp:100] Creating Layer conv9_2_mbox_loc
I0528 16:36:54.626997  1565 net.cpp:434] conv9_2_mbox_loc <- conv9_2_conv9_2_relu_0_split_0
I0528 16:36:54.627013  1565 net.cpp:408] conv9_2_mbox_loc -> conv9_2_mbox_loc
I0528 16:36:54.628343  1565 net.cpp:150] Setting up conv9_2_mbox_loc
I0528 16:36:54.628371  1565 net.cpp:157] Top shape: 1 16 1 1 (16)
I0528 16:36:54.628374  1565 net.cpp:165] Memory required for data: 251087392
I0528 16:36:54.628382  1565 layer_factory.hpp:77] Creating layer conv9_2_mbox_loc_perm
I0528 16:36:54.628391  1565 net.cpp:100] Creating Layer conv9_2_mbox_loc_perm
I0528 16:36:54.628396  1565 net.cpp:434] conv9_2_mbox_loc_perm <- conv9_2_mbox_loc
I0528 16:36:54.628401  1565 net.cpp:408] conv9_2_mbox_loc_perm -> conv9_2_mbox_loc_perm
I0528 16:36:54.628509  1565 net.cpp:150] Setting up conv9_2_mbox_loc_perm
I0528 16:36:54.628517  1565 net.cpp:157] Top shape: 1 1 1 16 (16)
I0528 16:36:54.628530  1565 net.cpp:165] Memory required for data: 251087456
I0528 16:36:54.628535  1565 layer_factory.hpp:77] Creating layer conv9_2_mbox_loc_flat
I0528 16:36:54.628541  1565 net.cpp:100] Creating Layer conv9_2_mbox_loc_flat
I0528 16:36:54.628545  1565 net.cpp:434] conv9_2_mbox_loc_flat <- conv9_2_mbox_loc_perm
I0528 16:36:54.628551  1565 net.cpp:408] conv9_2_mbox_loc_flat -> conv9_2_mbox_loc_flat
I0528 16:36:54.628576  1565 net.cpp:150] Setting up conv9_2_mbox_loc_flat
I0528 16:36:54.628592  1565 net.cpp:157] Top shape: 1 16 (16)
I0528 16:36:54.628594  1565 net.cpp:165] Memory required for data: 251087520
I0528 16:36:54.628610  1565 layer_factory.hpp:77] Creating layer conv9_2_mbox_conf
I0528 16:36:54.628623  1565 net.cpp:100] Creating Layer conv9_2_mbox_conf
I0528 16:36:54.628626  1565 net.cpp:434] conv9_2_mbox_conf <- conv9_2_conv9_2_relu_0_split_1
I0528 16:36:54.628633  1565 net.cpp:408] conv9_2_mbox_conf -> conv9_2_mbox_conf
I0528 16:36:54.631176  1565 net.cpp:150] Setting up conv9_2_mbox_conf
I0528 16:36:54.631191  1565 net.cpp:157] Top shape: 1 84 1 1 (84)
I0528 16:36:54.631206  1565 net.cpp:165] Memory required for data: 251087856
I0528 16:36:54.631213  1565 layer_factory.hpp:77] Creating layer conv9_2_mbox_conf_perm
I0528 16:36:54.631220  1565 net.cpp:100] Creating Layer conv9_2_mbox_conf_perm
I0528 16:36:54.631225  1565 net.cpp:434] conv9_2_mbox_conf_perm <- conv9_2_mbox_conf
I0528 16:36:54.631235  1565 net.cpp:408] conv9_2_mbox_conf_perm -> conv9_2_mbox_conf_perm
I0528 16:36:54.631348  1565 net.cpp:150] Setting up conv9_2_mbox_conf_perm
I0528 16:36:54.631368  1565 net.cpp:157] Top shape: 1 1 1 84 (84)
I0528 16:36:54.631377  1565 net.cpp:165] Memory required for data: 251088192
I0528 16:36:54.631387  1565 layer_factory.hpp:77] Creating layer conv9_2_mbox_conf_flat
I0528 16:36:54.631394  1565 net.cpp:100] Creating Layer conv9_2_mbox_conf_flat
I0528 16:36:54.631399  1565 net.cpp:434] conv9_2_mbox_conf_flat <- conv9_2_mbox_conf_perm
I0528 16:36:54.631404  1565 net.cpp:408] conv9_2_mbox_conf_flat -> conv9_2_mbox_conf_flat
I0528 16:36:54.631440  1565 net.cpp:150] Setting up conv9_2_mbox_conf_flat
I0528 16:36:54.631448  1565 net.cpp:157] Top shape: 1 84 (84)
I0528 16:36:54.631460  1565 net.cpp:165] Memory required for data: 251088528
I0528 16:36:54.631464  1565 layer_factory.hpp:77] Creating layer conv9_2_mbox_priorbox
I0528 16:36:54.631471  1565 net.cpp:100] Creating Layer conv9_2_mbox_priorbox
I0528 16:36:54.631476  1565 net.cpp:434] conv9_2_mbox_priorbox <- conv9_2_conv9_2_relu_0_split_2
I0528 16:36:54.631484  1565 net.cpp:434] conv9_2_mbox_priorbox <- data_data_0_split_6
I0528 16:36:54.631490  1565 net.cpp:408] conv9_2_mbox_priorbox -> conv9_2_mbox_priorbox
I0528 16:36:54.631518  1565 net.cpp:150] Setting up conv9_2_mbox_priorbox
I0528 16:36:54.631525  1565 net.cpp:157] Top shape: 1 2 16 (32)
I0528 16:36:54.631530  1565 net.cpp:165] Memory required for data: 251088656
I0528 16:36:54.631532  1565 layer_factory.hpp:77] Creating layer mbox_loc
I0528 16:36:54.631541  1565 net.cpp:100] Creating Layer mbox_loc
I0528 16:36:54.631546  1565 net.cpp:434] mbox_loc <- conv4_3_norm_mbox_loc_flat
I0528 16:36:54.631551  1565 net.cpp:434] mbox_loc <- fc7_mbox_loc_flat
I0528 16:36:54.631556  1565 net.cpp:434] mbox_loc <- conv6_2_mbox_loc_flat
I0528 16:36:54.631559  1565 net.cpp:434] mbox_loc <- conv7_2_mbox_loc_flat
I0528 16:36:54.631564  1565 net.cpp:434] mbox_loc <- conv8_2_mbox_loc_flat
I0528 16:36:54.631567  1565 net.cpp:434] mbox_loc <- conv9_2_mbox_loc_flat
I0528 16:36:54.631572  1565 net.cpp:408] mbox_loc -> mbox_loc
I0528 16:36:54.631602  1565 net.cpp:150] Setting up mbox_loc
I0528 16:36:54.631611  1565 net.cpp:157] Top shape: 1 34928 (34928)
I0528 16:36:54.631615  1565 net.cpp:165] Memory required for data: 251228368
I0528 16:36:54.631618  1565 layer_factory.hpp:77] Creating layer mbox_conf
I0528 16:36:54.631624  1565 net.cpp:100] Creating Layer mbox_conf
I0528 16:36:54.631628  1565 net.cpp:434] mbox_conf <- conv4_3_norm_mbox_conf_flat
I0528 16:36:54.631633  1565 net.cpp:434] mbox_conf <- fc7_mbox_conf_flat
I0528 16:36:54.631638  1565 net.cpp:434] mbox_conf <- conv6_2_mbox_conf_flat
I0528 16:36:54.631642  1565 net.cpp:434] mbox_conf <- conv7_2_mbox_conf_flat
I0528 16:36:54.631645  1565 net.cpp:434] mbox_conf <- conv8_2_mbox_conf_flat
I0528 16:36:54.631649  1565 net.cpp:434] mbox_conf <- conv9_2_mbox_conf_flat
I0528 16:36:54.631654  1565 net.cpp:408] mbox_conf -> mbox_conf
I0528 16:36:54.631678  1565 net.cpp:150] Setting up mbox_conf
I0528 16:36:54.631685  1565 net.cpp:157] Top shape: 1 183372 (183372)
I0528 16:36:54.631690  1565 net.cpp:165] Memory required for data: 251961856
I0528 16:36:54.631692  1565 layer_factory.hpp:77] Creating layer mbox_priorbox
I0528 16:36:54.631700  1565 net.cpp:100] Creating Layer mbox_priorbox
I0528 16:36:54.631705  1565 net.cpp:434] mbox_priorbox <- conv4_3_norm_mbox_priorbox
I0528 16:36:54.631709  1565 net.cpp:434] mbox_priorbox <- fc7_mbox_priorbox
I0528 16:36:54.631713  1565 net.cpp:434] mbox_priorbox <- conv6_2_mbox_priorbox
I0528 16:36:54.631717  1565 net.cpp:434] mbox_priorbox <- conv7_2_mbox_priorbox
I0528 16:36:54.631721  1565 net.cpp:434] mbox_priorbox <- conv8_2_mbox_priorbox
I0528 16:36:54.631724  1565 net.cpp:434] mbox_priorbox <- conv9_2_mbox_priorbox
I0528 16:36:54.631732  1565 net.cpp:408] mbox_priorbox -> mbox_priorbox
I0528 16:36:54.631757  1565 net.cpp:150] Setting up mbox_priorbox
I0528 16:36:54.631763  1565 net.cpp:157] Top shape: 1 2 34928 (69856)
I0528 16:36:54.631767  1565 net.cpp:165] Memory required for data: 252241280
I0528 16:36:54.631770  1565 layer_factory.hpp:77] Creating layer mbox_conf_reshape
I0528 16:36:54.631779  1565 net.cpp:100] Creating Layer mbox_conf_reshape
I0528 16:36:54.631788  1565 net.cpp:434] mbox_conf_reshape <- mbox_conf
I0528 16:36:54.631798  1565 net.cpp:408] mbox_conf_reshape -> mbox_conf_reshape
I0528 16:36:54.631861  1565 net.cpp:150] Setting up mbox_conf_reshape
I0528 16:36:54.631870  1565 net.cpp:157] Top shape: 1 8732 21 (183372)
I0528 16:36:54.631873  1565 net.cpp:165] Memory required for data: 252974768
I0528 16:36:54.631877  1565 layer_factory.hpp:77] Creating layer mbox_conf_softmax
I0528 16:36:54.631884  1565 net.cpp:100] Creating Layer mbox_conf_softmax
I0528 16:36:54.631888  1565 net.cpp:434] mbox_conf_softmax <- mbox_conf_reshape
I0528 16:36:54.631894  1565 net.cpp:408] mbox_conf_softmax -> mbox_conf_softmax
I0528 16:36:54.632120  1565 net.cpp:150] Setting up mbox_conf_softmax
I0528 16:36:54.632131  1565 net.cpp:157] Top shape: 1 8732 21 (183372)
I0528 16:36:54.632135  1565 net.cpp:165] Memory required for data: 253708256
I0528 16:36:54.632138  1565 layer_factory.hpp:77] Creating layer mbox_conf_flatten
I0528 16:36:54.632146  1565 net.cpp:100] Creating Layer mbox_conf_flatten
I0528 16:36:54.632150  1565 net.cpp:434] mbox_conf_flatten <- mbox_conf_softmax
I0528 16:36:54.632156  1565 net.cpp:408] mbox_conf_flatten -> mbox_conf_flatten
I0528 16:36:54.632184  1565 net.cpp:150] Setting up mbox_conf_flatten
I0528 16:36:54.632190  1565 net.cpp:157] Top shape: 1 183372 (183372)
I0528 16:36:54.632194  1565 net.cpp:165] Memory required for data: 254441744
I0528 16:36:54.632197  1565 layer_factory.hpp:77] Creating layer detection_out
I0528 16:36:54.632212  1565 net.cpp:100] Creating Layer detection_out
I0528 16:36:54.632217  1565 net.cpp:434] detection_out <- mbox_loc
I0528 16:36:54.632222  1565 net.cpp:434] detection_out <- mbox_conf_flatten
I0528 16:36:54.632225  1565 net.cpp:434] detection_out <- mbox_priorbox
I0528 16:36:54.632232  1565 net.cpp:434] detection_out <- data_data_0_split_7
I0528 16:36:54.632241  1565 net.cpp:408] detection_out -> detection_out
I0528 16:36:54.632576  1565 net.cpp:150] Setting up detection_out
I0528 16:36:54.632588  1565 net.cpp:157] Top shape: 1 1 1 7 (7)
I0528 16:36:54.632592  1565 net.cpp:165] Memory required for data: 254441772
I0528 16:36:54.632596  1565 net.cpp:228] detection_out does not need backward computation.
I0528 16:36:54.632603  1565 net.cpp:228] mbox_conf_flatten does not need backward computation.
I0528 16:36:54.632611  1565 net.cpp:228] mbox_conf_softmax does not need backward computation.
I0528 16:36:54.632614  1565 net.cpp:228] mbox_conf_reshape does not need backward computation.
…
